models/deep_learning/cnn_model.pth (torch, 508440 bytes, 8 tensors)

convs.0.weight f4 [100, 100, 3]
0.047761742 0.11118495 0.14156835 0.052980863 0.007708301 -0.12515402 -0.021709368 0.034741484
-0.072987035 0.10336142 0.08454795 0.093395576 0.0348265 0.014746073 0.10812112 0.040325813
-0.12762375 -0.044311345 -0.044057697 0.04096463 -0.039687946 0.0076023084 -0.05522292 -0.021095034
-0.01362893 -0.042307857 -0.07423971 -0.03851532 0.005842922 -0.015681341 -0.016643088 -0.029210668
0.07556208 0.024906116 -0.06850413 0.10977663 -0.10026013 0.0060469387 0.15170468 0.07411282
-0.02846828 0.10366548 -0.017517045 0.094621524 -0.09257302 -0.02673942 0.020372836 0.025050871
-0.100028306 -0.0805022 -0.0691323 -0.066524744 0.071205415 0.09012914 -0.16294569 0.06692229
0.11436201 -0.009410589 -0.010633228 -0.0909791 0.023747548 0.12329478 0.10820574 0.06970219
-0.06034011 -0.089678526 0.109078795 -0.032537535 0.09986765 -0.15342298 0.049808845 -0.05737118
-0.057963245 0.10788051 -0.09102885 -0.027856674 0.15473714 -0.014020525 0.0061784983 0.09807912
-0.050510295 -0.061751936 -0.040452667 0.032105833 -0.028814664 -0.04095553 -0.04162552 0.06471883
-0.07608273 -0.08085942 0.032862652 -0.036461372 -0.07510688 -0.0986192 -0.041250966 -0.29375196
0.02731409 -0.016719703 -0.014811044 0.025539268 -0.019543024 0.0788647 0.02136695 -0.074067205
0.05735955 0.06882388 -0.14445002 0.058253042 0.027207887 0.057701338 0.0033988243 -0.11011707
-0.030303726 0.079997845 -0.059390776 -0.19296929 -0.028398069 0.055178728 0.15382268 -0.033674266
0.008849305 -0.09966732 0.15606776 -0.08685872 -0.034002375 0.12225397 0.042461824 -0.098119855
0.041675534 -0.054149423 -0.057645354 -0.07788594 0.03379601 0.054732148 0.14646482 -0.027153866
0.12080962 0.04670406 -0.0486371 0.02580137 -0.07670938 0.018970493 0.0681181 0.13939671
0.044151545 0.097772315 0.15150727 0.11496913 0.0061895414 -0.050552744 -0.052381385 0.05874951
-0.12829342 -0.019143548 -0.11891805 0.010399297 0.06006952 0.124385916 0.11773095 -0.08510083
-0.15357272 -0.12617195 0.11620983 0.023861485 0.06558806 0.13284715 0.021258388 0.09527081
0.01228665 0.0535998 -0.113872126 -0.02616817 0.07283654 0.09491481 -0.039490014 -0.03412639
0.0036576525 0.05554519 -0.025961783 0.09493229 -0.019544173 0.010973979 0.06825051 0.063599445
0.11838583 0.06468978 0.056915157 0.15741868 0.065055385 -0.031856354 -0.13663694 -0.005608989
0.04498097 0.029093845 -0.17363903 0.01120982 0.050088856 -0.008202522 0.069117665 -0.09817763
-0.003064113 0.04342182 0.084287375 -0.019027174 0.013529567 -0.10890957 -0.02061348 -0.14867532
0.058553472 0.002117585 0.019915244 0.07787579 -0.03423935 -0.07082612 -0.012499837 -0.08105427
0.04351918 0.031960204 0.08393455 0.08535513 0.20987768 0.037823204 -0.06912458 -0.1060772
-0.07376442 0.0874788 -0.045589287 0.113012925 -0.028197832 -0.025977693 0.052446093 -0.00044835388
0.10513556 0.12602827 0.11061867 0.06676006 0.21188807 0.026763728 0.11152416 0.11330577
-0.036782067 -0.02267386 0.053297814 0.032440078 0.071696684 0.14750443 -0.04016618 0.015413847
0.15325466 -0.005313676 0.037370574 0.06487224 0.049050022 0.018964391 0.000714977 -0.07268734
00000000: d1a1 433d efb4 e33d 4bf7 103e 7602 593d
00000010: ea95 fc3b 6028 00be d8d7 b1bc 164d 0e3d
00000020: 3a7a 95bd 27af d33d 7a27 ad3d 2e46 bf3d
00000030: 3ba6 0e3d 8399 713c 9b6e dd3d ae2c 253d
00000040: cdaf 02be d07f 35bd d875 34bd 87ca 273d
00000050: d48f 22bd c91c f93b 6e31 62bd 7ecf acbc
00000060: e04b 5fbc 014b 2dbd fd0a 98bd 3dc2 1dbd
00000070: fb75 bf3b 2876 80bc 1657 88bc 364b efbc
00000080: 4bc0 9a3d e907 cc3c e54b 8cbd 92d2 e03d
00000090: 2f55 cdbd 6625 c63b 7958 1b3e 76c8 973d
000000a0: 4f36 e9bc 914e d43d e87f 8fbc eec8 c13d
000000b0: ec96 bdbd a10c dbbc efe4 a63c 7c37 cd3c
000000c0: a4db ccbd 56de a4bd 3c95 8dbd 203e 88bd
000000d0: 25d4 913d a095 b83d 3cdb 26be 8e0e 893d
000000e0: a136 ea3d df2e 1abc fe36 2ebc 4053 babd
000000f0: 388a c23c f981 fc3d f99a dd3d 06c0 8e3d
00000100: 3127 77bd 60a9 b7bd b464 df3d 1446 05bd
00000110: 6987 cc3d ea1a 1dbe 5c04 4c3d 0bfe 6abd
00000120: de6a 6dbd 75f0 dc3d 556d babd ae33 e4bc
00000130: 6a73 1e3e 58b6 65bc 0075 ca3b b5dd c83d
00000140: e2e3 4ebd 99ef 7cbd b2b1 25bd 6881 033d
00000150: bb0c ecbc fcc0 27bd 857f 2abd 4e8b 843d
00000160: 43d1 9bbd a099 a5bd fd9a 063d 8558 15bd
00000170: a3d1 99bd ddf8 c9bd c6f6 28bd a866 96be
00000180: ccc1 df3c c2f7 88bc 05aa 72bc ba37 d13c
00000190: b118 a0bc d183 a13d be09 af3c 8cb0 97bd
000001a0: d9f1 6a3d 89f3 8c3d b5ea 13be be9a 6e3d
000001b0: 13e3 de3c 3d58 6c3d cfbe 5e3b 0f85 e1bd
000001c0: 853f f8bc e9d5 a33d be43 73bd be99 45be
000001d0: 11a3 e8bc 1703 623d b183 1d3e 07ee 09bd
000001e0: adfc 103c 611e ccbd 3ad0 1f3e fce2 b1bd
000001f0: 1346 0bbd 4a60 fa3d 73ec 2d3d 10f3 c8bd
00000200: f7b3 2a3d c9cb 5dbd 891d 6cbd aa82 9fbd
00000210: af6d 0a3d d12e 603d e0fa 153e c971 debc
00000220: 096b f73d c24c 3f3d b237 47bd 655d d33c
00000230: cf19 9dbd 0268 9b3c 8181 8b3d 03be 0e3e
00000240: 40d8 343d da3c c83d b924 1b3e ef74 eb3d
00000250: a3d1 ca3b 6510 4fbd dd8d 56bd 54a3 703d
00000260: 5a5f 03be eed2 9cbc 4e8b f3bd d061 2a3c
00000270: 750b 763d 0bbe fe3d ed1c f13d 5849 aebd
00000280: 2b42 1dbe 3833 01be 6bff ed3d 2979 c33c
00000290: 0853 863d 1509 083e 1226 ae3c 581d c33d
000002a0: f24d 493c 778b 5b3d ca35 e9bd a15e d6bc
000002b0: 532b 953d b262 c23d 48c0 21bd 1dc8 0bbd
000002c0: 3ab5 6f3b 5a83 633d cead d4bc dc6b c23d
000002d0: 1a1b a0bc 34cc 333c ecc6 8b3d 6d40 823d
000002e0: 4574 f23d 137c 843d de1f 693d 5d32 213e
000002f0: c23b 853d cf7b 02bd 8eea 0bbe 9ccb b7bb
00000300: f73d 383d 3756 ee3c 6ece 31be 65a9 373c
00000310: f929 4d3d df63 06bc 908d 8d3d 5a11 c9bd
00000320: 49cf 48bb 14db 313d dc9e ac3d e0de 9bbc
00000330: 1eab 5d3c fb0b dfbd 9add a8bc 583e 18be
00000340: c4d5 6f3d 2ec7 0a3b 4b25 a33c 587d 9f3d
00000350: 903e 0cbd 490d 91bd 1ecc 4cbc c8ff a5bd
00000360: 2b41 323d b4e8 023d e1e5 ab3d acce ae3d
00000370: 2dea 563e 81ec 1a3d 3091 8dbd 013f d9bd
00000380: cd11 97bd 1628 b33d d5bb 3abd 5273 e73d
00000390: 24ff e6bc 2ccf d4bc b7d1 563d 0a11 ebb9
000003a0: 5051 d73d 8e0d 013e 0b8c e23d 80b9 883d
000003b0: 30f9 583e 9b3f db3c c766 e43d db0c e83d
000003c0: cba8 16bd 88be b9bc cf4e 5a3d e3df 043d
000003d0: b6d5 923d 670b 173e 4b85 24bd 5c8a 7c3c
000003e0: caee 1c3e 581e aebb e311 193d bddb 843d
000003f0: ade8 483d 365b 9b3c 4b6d 3b3a 1add 94bd

convs.0.bias f4 [100]
-0.2597725 -0.10143507 -0.17144881 -0.13220872 -0.15372075 -0.16906399 -0.10963738 -0.04930278
-0.15806337 -0.10848567 -0.13708094 -0.07790076 -0.26126114 -0.15605374 -0.12618168 -0.1875311
-0.07233746 -0.2702292 -0.18496667 -0.11637898 -0.29013056 -0.22790435 -0.165272 -0.19337708
-0.16193122 -0.1372256 -0.20459642 -0.055765558 -0.12595005 -0.1961589 -0.22318707 -0.13469015
-0.21749249 -0.17308271 -0.1233046 -0.024438582 -0.18893084 -0.17855768 -0.17120561 -0.108947694
-0.25066411 -0.13290547 -0.14615884 -0.052198578 -0.054241356 -0.18028931 -0.21275961 -0.23404074
-0.26004955 -0.25829354 -0.20457509 -0.19308221 -0.06613504 -0.21314657 -0.113463774 -0.16927497
-0.26281953 -0.16738914 -0.27272815 -0.17039059 -0.15961036 -0.07181755 -0.22196926 -0.23508234
-0.12959327 -0.16849615 -0.19203666 -0.12280503 -0.18488827 -0.15208185 -0.16527769 -0.060814027
-0.060987003 -0.1579235 -0.042022444 -0.108479485 -0.18524943 -0.17648865 -0.13319565 -0.09222511
-0.21382399 -0.1059071 -0.1385374 -0.044531558 -0.19218901 -0.18914111 -0.22928903 -0.23187022
-0.22375947 -0.11451862 -0.16331282 -0.22978969 -0.21270749 -0.1551788 -0.12639764 -0.17591874
-0.13465129 -0.056333072 -0.2048788 -0.24721637
00000000: e700 85be 31bd cfbd 4790 2fbe b961 07be
00000010: f968 1dbe 1c1f 2dbe 9089 e0bd b6f1 49bd
00000020: 5ddb 21be bc2d debd f25e 0cbe 6f8a 9fbd
00000030: 05c4 85be 8dcc 1fbe c535 01be 2708 40be
00000040: aa25 94bd 7b5b 8abe e767 3dbe 1a58 eebd
00000050: fe8b 94be c25f 69be 103d 29be a404 46be
00000060: 4cd1 25be de84 0cbe b981 51be 6d6a 64bd
00000070: 0df9 00be e1dd 48be 278b 64be 37ec 09be
00000080: 5ab6 5ebe 983c 31be 1f87 fcbd 6c33 c8bc
00000090: 1677 41be d3d7 36be 8650 2fbe f81f dfbd
000000a0: 0c57 80be 5f18 08be aaaa 15be 2dce 55bd
000000b0: 2f2c 5ebd c39d 38be a8dd 59be 60a8 6fbe
000000c0: 3725 85be 0d3f 84be 227c 51be 58b7 45be
000000d0: cf71 87bd 1843 5abe b25f e8bd 6b56 2dbe
000000e0: 4890 86be 0f68 2bbe 06a3 8bbe df7a 2ebe
000000f0: e670 23be 1415 93bd e94b 63be 6db9 70be
00000100: 19b4 04be 418a 2cbe 42a5 44be 3481 fbbd
00000110: 5a53 3dbe 58bb 1bbe 8e3e 29be 2118 79bd
00000120: 82cd 79bd b3b6 21be ba1f 2cbd 7e2a debd
00000130: 07b2 3dbe 71b9 34be 7164 08be 85e0 bcbd
00000140: adf4 5abe d2e5 d8bd c0dc 0dbe b966 36bd
00000150: 32cd 44be 35ae 41be beca 6abe 636f 6dbe
00000160: 3421 65be bd88 eabd 7a3b 27be fd4d 6bbe
00000170: fecf 59be 31e7 1ebe 626e 01be 0b24 34be
00000180: 07e2 09be 82bd 66bd c0cb 51be 4a26 7dbe

convs.1.weight f4 [100, 100, 4]
0.091445506 -0.01683778 -0.00055704924 0.0042820936 0.034715068 0.12353103 -0.046556484 0.02516575
-0.035886627 -0.1276424 -0.060881637 -0.08698888 0.093170986 0.13756584 0.09499109 0.06374384
-0.063604884 0.06389239 0.020767951 0.018285554 -0.077918194 -0.0025798543 -0.025724063 -0.004291548
-0.024780381 -0.0658146 -0.030441046 -0.0229294 -0.12695925 0.04785721 -0.004784601 -0.020056123
-0.12065413 -0.04761403 0.0032704587 -0.03596884 -0.025213715 0.0834147 0.0038045028 0.09357239
-0.09883904 0.033995114 -0.10898999 -0.061279483 -0.037125044 -0.101267934 0.00028127164 -0.07936554
0.00850902 0.044684 0.009569296 0.017716749 0.01898612 -0.03946988 -0.014857504 0.0024583987
-0.058123533 0.041103445 -0.040473618 0.0147164585 0.15014428 0.024638113 -0.014666025 0.010432043
0.120177545 -0.02336331 -0.04043996 -0.06344219 0.00026990985 0.1157666 -0.001140815 0.062777616
0.08057371 -0.015547944 0.023825955 0.047801945 -0.03057371 -0.07705492 0.06424416 0.012497915
0.13465206 -0.0010758848 0.10521402 0.04171405 -0.011181129 -0.01964711 0.09914775 0.025705025
0.008175532 -0.0058185705 -0.015170755 0.042826943 0.033840206 -0.085739665 0.0140558 -0.0014172914
-0.017794836 0.0018498793 -0.00066866307 -0.025046127 0.006392719 -0.07207223 -0.0390214 0.00901738
-0.050201897 -0.045994196 -0.021959633 -0.007152105 -0.03788331 0.062348824 0.050107613 0.035135444
0.043013465 0.02783248 0.06859123 0.029270442 0.04417258 -0.054744206 0.03262082 0.036014564
0.01091469 -0.027247118 -0.009308274 0.0001971002 -0.020360216 -0.084397815 -0.05464735 -0.10583907
-0.045440666 -0.03883112 0.011772003 0.031753052 0.017890634 -0.04048035 0.00083593675 -0.08276041
-0.1382456 0.059930332 0.011709608 0.023147946 0.018607916 -0.07806094 -0.0060163126 -0.05175973
-0.07648425 -0.023096468 -0.007371547 -0.08056972 -0.05790302 0.06542604 -0.10671838 0.046257768
-0.12513262 -0.03720111 -0.1337457 -0.02514357 0.10220127 0.041182347 0.09751991 0.037929986
0.021570548 0.04841555 -0.062033106 -0.030654341 -0.025632003 -0.08406684 -0.023420356 0.01504405
-0.0009272618 0.035980716 -0.014183318 -0.011256757 0.048674446 0.15588884 -0.02936317 0.06499564
0.15853126 0.08531531 0.015228607 0.114298634 -0.07354972 0.030273164 -0.017135836 0.019106012
0.08847304 -0.074139945 0.010327006 0.01163839 0.092896655 0.06299912 0.025857441 0.08295687
0.0016421024 0.07810396 0.05053217 -0.024731431 0.047712088 0.17641464 0.008354896 0.117046185
-0.032712214 0.110926986 0.0366857 0.0056303293 -0.034154776 -0.23189081 -0.03178818 -0.003130387
0.07592874 0.009463602 0.01630979 -0.031120898 0.04088282 0.11585917 -0.0090890825 -0.0020833847
0.18001442 0.08218119 -0.005326934 0.03257308 0.12419989 0.022821654 0.08090869 0.022143085
0.023996174 0.08201159 0.0556026 0.0073641944 -0.033936556 -0.10760579 -0.03036035 -0.06491786
-0.061710726 0.0077165617 -0.051751003 -0.072206154 0.03826294 -0.074170634 0.0032582711 -0.03300122
-0.062376883 -0.0889282 -0.007260233 -0.036707275 0.028156487 0.13454862 0.011798636 0.04954054
0.058139402 0.09049449 0.10104034 -0.0359384 -0.07714138 -0.11751408 -0.058135763 -0.08586904
00000000: c847 bb3d 62ef 89bc f106 12ba ce50 8c3b
00000010: 6331 0e3d d6fd fc3d 03b2 3ebd 6728 ce3c
00000020: dbfd 12bd b0b4 02be 065f 79bd 3a27 b2bd
00000030: 6ed0 be3d 0fde 0c3e b08a c23d 218c 823d
00000040: 4743 82bd 03da 823d 8d21 aa3c 96cb 953c
00000050: 9393 9fbd c612 29bb 45bb d2bc 1da0 8cbb
00000060: 3a00 cbbc cec9 86bd 805f f9bc 70d6 bbbc
00000070: 9b01 02be ec05 443d 24c8 9cbb bd4c a4bc
00000080: 8319 f7bd ee06 43bd 3155 563b 1054 13bd
00000090: fe8c cebc 54d5 aa3d f754 793b e2a2 bf3d
000000a0: 1f6c cabd 763e 0b3d 2536 dfbd 3200 7bbd
000000b0: 6e10 18bd 9065 cfbd a477 9339 668a a2bd
000000c0: 6b69 0b3c 9206 373d 89c8 1c3c b722 913c
000000d0: c888 9b3c 2bab 21bd e36c 73bc 161d 213b
000000e0: f112 6ebd 165c 283d aac7 25bd 4d1d 713c
000000f0: 6cbf 193e ded5 c93c c449 70bc 29eb 2a3c
00000100: a51f f63d 6a64 bfbc 5fa4 25bd fbed 81bd
00000110: b082 8d39 0a17 ed3d 6687 95ba 8d91 803d
00000120: d403 a53d cebc 7ebc a62e c33c f9cb 433d
00000130: b875 fabc f8ce 9dbd 7192 833d 0ec4 4c3c
00000140: 3be2 093e b404 8dba 737a d73d 5adc 2a3d
00000150: 0e31 37bc faf2 a0bc fa0d cb3d 5893 d23c
00000160: abf2 053c b5a9 bebb c28e 78bc 4e6b 2f3d
00000170: 079c 0a3d 4798 afbd 4c4a 663c 68c4 b9ba
00000180: 7ac6 91bc a677 f23a 3849 2fba 892d cdbc
00000190: 047a d13b 9b9a 93bd e7d4 1fbd a2bd 133c
000001a0: 81a0 4dbd 6964 3cbd b0e4 b3bc 355c eabb
000001b0: 882b 1bbd 7b61 7f3d a43d 4d3d 2fea 0f3d
000001c0: e32e 303d f100 e43c 8f79 8c3d 91c8 ef3c
000001d0: 4fee 343d 763b 60bd 699d 053d 0284 133d
000001e0: 87d3 323c 5935 dfbc bb81 18bc afac 4e39
000001f0: 78ca a6bc c3d8 acbd e6d5 5fbd 28c2 d8bd
00000200: fe1f 3abd 610d 1fbd 5cdf 403c 7d0f 023d
00000210: 618f 923c b9ce 25bd c422 5b3a 4a7e a9bd
00000220: 4190 0dbe 8279 753d a8d9 3f3c c3a0 bd3c
00000230: a16f 983c 6ade 9fbd 7d24 c5bb 0302 54bd
00000240: c6a3 9cbd ce34 bdbc 058d f1bb bd01 a5bd
00000250: b82b 6dbd 16fe 853d 2a8f dabd c978 3d3d
00000260: c422 00be 3160 18bd a2f4 08be e3f9 cdbc
00000270: e64e d13d d2ae 283d 85b8 c73d 795c 1b3d
00000280: b8b4 b03c 624f 463d 6d16 7ebd d01e fbbc
00000290: 35fa d1bc 3c2b acbd 0cdc bfbc 527b 763c
000002a0: 7c13 73ba 8460 133d 2661 68bc 436e 38bc
000002b0: db5e 473d 53a1 1f3e 088b f0bc 6f1c 853d
000002c0: 0556 223e cbb9 ae3d 6881 793c 6715 ea3d
000002d0: 3ca1 96bd 6dff f73c 7460 8cbc 3684 9c3c
000002e0: 5a31 b53d afd6 97bd 9a32 293c f2ae 3e3c
000002f0: 9a40 be3d af05 813d fcd2 d33c 4be5 a93d
00000300: d03b d73a f8f4 9f3d d2fa 4e3d 9299 cabc
00000310: c06d 433d 0aa6 343e f9e2 083c e9b5 ef3d
00000320: 3efd 05bd b02d e33d bf43 163d a07e b83b
00000330: e1e5 0bbd c974 6dbe 5334 02bd 2e27 4dbb
00000340: 8780 9b3d 390d 1b3c 1c9c 853c 41f1 febc
00000350: be74 273d 9347 ed3d 60ea 14bc 6589 08bb
00000360: b355 383e 9d4e a83d 908d aebb 5a6b 053d
00000370: 835c fe3d 7af4 ba3c 75b3 a53d 6a65 b53c
00000380: a093 c43c b1f5 a73d 8dbf 633d 574f f13b
00000390: 0f01 0bbd 6d60 dcbd 45b6 f8bc a8f3 84bd
000003a0: 63c4 7cbd 36db fc3b dcf8 53bd d2e0 93bd
000003b0: 9ab9 1c3d c6e6 97bd b888 553b 4a2c 07bd
000003c0: e77e 7fbd fd1f b6bd 40e7 edbb 5e5a 16bd
000003d0: 6fa8 e63c 1dc7 093e 114f 413c 05eb 4a3d
000003e0: 9523 6e3d 2d55 b93d 3dee ce3d 2534 13bd
000003f0: 4dfc 9dbd 39ab f0bd c41f 6ebd 1bdc afbd

convs.1.bias f4 [100]
-0.19003439 -0.20109874 -0.22120015 -0.115030155 -0.13215311 -0.17940545 -0.10391637 -0.22044785
-0.18567027 -0.15077955 -0.14961667 -0.15376547 -0.20089099 -0.040877406 -0.20276445 -0.17824951
-0.20115076 -0.15269716 -0.15485314 -0.11850778 -0.16927114 -0.08167551 -0.0756266 -0.073323
-0.119298436 -0.1597277 -0.24342805 -0.05625042 -0.09963095 -0.24195829 -0.15807071 -0.20974976
-0.20997739 -0.036837574 -0.078593604 -0.25914177 -0.08604406 -0.12121557 -0.18627936 -0.20548515
-0.17311896 -0.10030267 -0.17532882 -0.078483194 -0.1462173 -0.23302501 -0.18241325 -0.16443504
-0.19138749 -0.14295976 -0.089118995 -0.113477446 -0.115169816 -0.09944009 -0.19476365 -0.16399667
-0.17363505 -0.17246419 -0.17901158 -0.12354534 -0.2719324 -0.19435006 -0.18203677 -0.09476912
-0.19006664 -0.10901558 -0.14851697 -0.20224024 -0.15066057 -0.22423814 -0.20610541 -0.16173136
-0.14242756 -0.124445006 -0.08062111 -0.18192971 -0.20153673 -0.2364425 -0.08791457 -0.105977304
-0.07083588 -0.14086641 -0.13956296 -0.049908087 -0.076413356 -0.1419759 -0.10328474 -0.24719642
-0.09077419 -0.12922385 -0.1807273 -0.22908422 -0.19993077 -0.18363887 -0.17331752 -0.08934583
-0.1359125 -0.0984056 -0.1251386 -0.13174751
00000000: 6098 42be d4ec 4dbe 4b82 62be ee94 ebbd
00000010: 2553 07be 10b6 37be 1bd2 d4bd 15bd 61be
00000020: 5920 3ebe f465 1abe 1d35 19be b274 1dbe
00000030: 5eb6 4dbe 116f 27bd 7ca1 4fbe 0a87 36be
00000040: 77fa 4dbe a55c 1cbe d291 1ebe 35b4 f2bd
00000050: 6a55 2dbe 7d45 a7bd 1ee2 9abd 5e2a 96bd
00000060: bd52 f4bd a88f 23be 3445 79be d766 66bd
00000070: 500b ccbd eac3 77be 4add 21be a4c8 56be
00000080: 5004 57be ffe2 16bd aff5 a0bd 3bae 84be
00000090: de37 b0bd de3f f8bd 04c0 3ebe b36a 52be
000000a0: 1946 31be 7c6b cdbd 6689 33be ccbb a0bd
000000b0: fdb9 15be 1c9e 6ebe 8aca 3abe a961 28be
000000c0: 15fb 43be 0b64 12be 0584 b6bd dd66 e8bd
000000d0: 27de ebbd 3fa7 cbbd 1f70 47be beee 27be
000000e0: 63cd 31be 749a 30be d04e 37be 5705 fdbd
000000f0: b93a 8bbe b403 47be d967 3abe 5016 c2bd
00000100: d4a0 42be 8f43 dfbd d514 18be 1118 4fbe
00000110: c446 1abe af9e 65be 4c0d 53be e89c 25be
00000120: 88d8 11be 06dd febd ae1c a5bd c84b 3abe
00000130: a55f 4ebe fc1d 72be 8e0c b4bd a10a d9bd
00000140: 6712 91bd 493f 10be 98e9 0ebe 6c6c 4cbd
00000150: 9b7e 9cbd 2162 11be f386 d3bd 0f21 7dbe
00000160: d2e7 b9bd 4253 04be 9410 39be 0e95 6abe
00000170: a7ba 4cbe d40b 3cbe 267a 31be f2fa b6bd
00000180: a52c 0bbe e088 c9bd 5524 00be d2e8 06be

convs.2.weight f4 [100, 100, 5]
-0.003789762 0.061508775 -0.012639221 0.02520275 0.032597445 0.0029002426 -0.004727099 -0.016721036
-0.02723942 -0.006633395 0.03374211 -0.20061696 0.07678726 -0.013743856 -0.0070607043 -0.051415235
0.08753034 0.1431964 0.059642177 0.05351384 0.037682816 0.03745593 0.032252036 0.105457984
-0.01135413 -0.054500427 0.025701514 -0.07086358 -0.035632405 0.13335313 -0.11951348 0.07100801
-0.063607074 -0.025383549 0.020736692 -0.0059573483 -0.06787651 0.029046053 0.019450212 0.053161766
-0.036637705 -0.0869575 -0.04507973 -0.017765397 0.041923303 -0.0027571667 0.09560834 0.024471113
0.035462048 0.023466863 0.07490294 -0.025986113 -0.069736294 -0.029697279 -0.09066917 -0.08732848
0.0064748204 0.06329986 0.041612484 0.07069018 -0.10952213 0.068133116 -0.01653182 -0.002118768
-0.02062854 -0.025957234 0.108258 -0.07330295 -0.02938992 0.029254846 -0.020675808 0.11700942
-0.055484015 0.019902967 0.09606197 0.08973104 0.01495743 -0.071430594 0.024071757 0.05685797
-0.0018561304 -0.07451429 -0.11499815 0.021849796 -0.010243195 -0.12024279 -0.04408371 -0.022535233
0.03380382 0.011019068 0.112893835 -0.012204974 -0.003220885 0.04339652 0.021158168 0.043585926
0.043521795 -0.044732112 0.0546749 0.055018302 0.18702625 -0.035216164 0.01256164 0.018234931
0.028545965 0.10086867 0.15013698 -0.018942533 0.009756403 -0.005377337 -0.024257332 -0.093992405
-0.06098037 0.038822114 0.055895872 0.03346575 -0.034556765 -0.07666236 -0.08331916 -0.059083804
-0.022535853 -0.18507436 -0.025824577 -0.05392129 -0.013888314 -0.046051573 0.07760604 -0.014377652
0.08273389 0.051843956 0.117601775 0.028347338 0.08121108 0.013539455 -0.029729493 0.057232957
-0.108945385 0.014770644 -0.06316464 -0.038951594 0.033566106 -0.06636839 -0.067291714 -0.0561283
-0.060078673 -0.021531848 -0.07186761 -0.017248614 0.058798812 0.024324937 0.009485066 -0.07963008
-0.04563444 0.018808426 0.04833517 -0.08290177 0.049235076 -0.14318144 -0.090036705 -0.10869912
-0.025118401 -0.054994598 0.032089204 0.0020490913 0.0693437 0.082259394 0.077019535 -0.14027916
-0.05226092 -0.002553789 0.046790734 -0.121769644 -0.0044517457 0.047338028 -0.07613398 0.06695654
-0.025590453 0.10803851 0.013639959 0.017321082 -0.06824662 -0.11072607 0.016392158 0.051758707
-0.07806822 -0.15221356 0.011261253 -0.11101513 0.005569433 -0.079804055 -0.038073182 -0.14863694
-0.13014609 0.030543454 -0.018792547 0.12316494 0.035875585 0.012047471 0.032848395 -0.09559013
0.073129185 -0.04475325 -0.004168457 0.016924903 -0.0074244523 -0.040353272 0.027804406 -0.076672986
0.0036954586 0.030116083 -0.035687074 0.057763092 0.069312826 0.047058754 0.03740061 -0.008745946
0.0036515084 -0.019595878 -0.007523857 0.05272505 0.13362339 0.13238317 0.050367974 0.04299302
0.109635375 0.04171416 -0.09354327 -0.018767346 -0.010907725 -0.016282601 -0.006116587 0.02366922
0.062034085 0.021596672 -0.0282971 -0.060324177 -0.037894778 0.013122081 -0.04945073 -0.039349087
0.096008025 0.0025702696 0.035719216 -0.03337686 0.005960909 0.09741998 0.04464774 -0.006691442
0.059732724 -0.004722168 -0.033414517 -0.11843145 0.08712739 0.027583206 -0.0036968987 0.066383205
00000000: a85d 78bb a0f0 7b3d bc14 4fbc ff75 ce3c
00000010: e684 053d ff11 3e3b c8e5 9abb 8efa 88bc
00000020: 3425 dfbc f35c d9bb 2b35 0a3d 886e 4dbe
00000030: a442 9d3d e92d 61bc 7b5d e7bb c898 52bd
00000040: 1b43 b33d 14a2 123e 5b4b 743d 5431 5b3d
00000050: 4c59 1a3d 646b 193d b61a 043d 5bfa d73d
00000060: ac06 3abc d73b 5fbd fb8b d23c ed20 91bd
00000070: 49f3 11bd b98d 083e 7cc3 f4bd a66c 913d
00000080: 6d44 82bd 29f1 cfbc ffdf a93c dc35 c3bb
00000090: d702 8bbd fdf1 ed3c 0d56 9f3c 27c0 593d
000000a0: 6b11 16bd c616 b2bd 86a5 38bd bd88 91bc
000000b0: c5b7 2b3d 95b1 34bb 4ece c33d a577 c83c
000000c0: a740 113d 943d c03c b666 993d d4e0 d4bc
000000d0: e7d1 8ebd b547 f3bc c2b0 b9bd 46d9 b2bd
000000e0: bb2a d43b 5ba3 813d da71 2a3d 03c6 903d
000000f0: 234d e0bd 6089 8b3d bd6d 87bc 07db 0abb
00000100: 2ffd a8bc 44a4 d4bc 5fb6 dd3d db1f 96bd
00000110: 21c3 f0bc dca7 ef3c 5060 a9bc a3a2 ef3d
00000120: 3543 63bd 8c0b a33c 23bc c43d e8c4 b73d
00000130: 0210 753c 344a 92bd 2232 c53c e7e3 683d
00000140: 6749 f3ba f39a 98bd 2684 ebbd 58fe b23c
00000150: 13d3 27bc da41 f6bd 1f91 34bd cf9b b8bc
00000160: e075 0a3d 5289 343c e234 e73d 5ff7 47bc
00000170: 7c15 53bb 8dc0 313d e553 ad3c 2887 323d
00000180: e943 323d 0539 37bd caf2 5f3d df5a 613d
00000190: cf83 3f3e d33e 10bd 56cf 4d3c 6c61 953c
000001a0: 3ad9 e93c 3c94 ce3d 82bd 193e 5f2d 9bbc
000001b0: 52d9 1f3c 5f34 b0bb 50b7 c6bc 177f c0bd
000001c0: 8dc6 79bd f003 1f3d 12f3 643d 6213 093d
000001d0: 658b 0dbd 2801 9dbd 3ca3 aabd dc01 72bd
000001e0: 1c9d b8bc 2284 3dbe 108e d3bc 92dc 5cbd
000001f0: d08b 63bc 93a0 3cbd eaef 9e3d 3e90 6bbc
00000200: 6370 a93d 545a 543d 33d9 f03d ad38 e83c
00000210: ff51 a63d 97d4 5d3c 448b f3bc 1b6d 6a3d
00000220: c21e dfbd 9200 723c 765c 81bd b58b 1fbd
00000230: 9d7c 093d 27ec 87bd 3dd0 89bd cae6 65bd
00000240: 0e15 76bd 8f63 b0bc 532f 93bd f74c 8dbc
00000250: 06d7 703d 1745 c73c 4067 1b3c 1815 a3bd
00000260: 2eeb 3abd 2114 9a3c 19fb 453d 67c8 a9bd
00000270: b8aa 493d 289e 12be 2a65 b8bd a59d debd
00000280: 1bc5 cdbc 0442 61bd f86f 033d 0c4a 063b
00000290: 1204 8e3d 9d77 a83d 6bbc 9d3d 57a5 0fbe
000002a0: 8c0f 56bd 785d 27bb a4a7 3f3d 5d62 f9bd
000002b0: f3df 91bb 85e5 413d 22ec 9bbd 8320 893d
000002c0: 12a3 d1bc 4b43 dd3d 227a 5f3c f1e4 8d3c
000002d0: e2c4 8bbd 5ac4 e2bd d948 863c f000 543d
000002e0: 3be2 9fbd dfdd 1bbe 1e81 383c e75b e3bd
000002f0: ca7f b63b 4f70 a3bd a0f2 1bbd 4834 18be
00000300: 0445 05be 4436 fa3c d4f2 99bc e63d fc3d
00000310: 47f2 123d c162 453c 0a8c 063d c2c4 c3bd
00000320: c1c4 953d 2f4f 37bd 8d97 88bb 18a6 8a3c
00000330: d248 f3bb 7949 25bd 11c6 e33c ba06 9dbd
00000340: 822f 723b 01b6 f63c 9c2c 12bd fe98 6c3d
00000350: e2f3 8d3d aec0 403d 6231 193d 284b 0fbc
00000360: 254e 6f3b 8987 a0bc b08a f6bb 39f6 573d
00000370: 92d4 083e 748f 073e a64e 4e3d 7319 303d
00000380: 8388 e03d 78dc 2a3d 9d93 bfbd fabd 99bc
00000390: 51b6 32bc 1763 85bc a76d c8bb f4e5 c13c
000003a0: 7417 7e3d 81eb b03c 52cf e7bc 7c16 77bd
000003b0: 8e37 1bbd fffd 563c d98c 4abd 822c 21bd
000003c0: db9f c43d f871 283b 504e 123d 2db6 08bd
000003d0: bb53 c33b 2084 c73d 8ce0 363d e243 dbbb
000003e0: 4daa 743d 6bbc 9abb a9dd 08bd 308c f2bd
000003f0: d86f b23d 2df6 e13c ab47 72bb ebf3 873d

convs.2.bias f4 [100]
-0.16202553 -0.12898842 -0.09647249 -0.122801006 -0.17865649 -0.13058959 -0.10277681 -0.0923062
-0.12821572 -0.19584817 -0.1923727 -0.10701797 -0.1881384 -0.2002175 -0.23692428 -0.14947942
-0.12103326 -0.10187796 -0.1310786 -0.08587814 -0.13874845 -0.15335749 -0.19047633 -0.19535913
-0.09495495 -0.1491151 -0.17862931 -0.09957053 -0.079624 -0.06265761 -0.16329467 -0.14434224
-0.1599727 -0.1873133 -0.08917019 -0.06110919 -0.19172852 -0.1712271 -0.13865271 -0.14860426
-0.17400388 -0.2109753 -0.07912899 -0.20538084 -0.093543805 -0.118446656 -0.13604234 -0.121679105
-0.17082146 -0.10617612 -0.09957688 -0.16021869 -0.15566297 -0.1587807 -0.11207466 -0.124390334
-0.102216706 -0.16383699 -0.20194978 -0.19142805 -0.19445978 -0.16007628 -0.0867675 -0.1466671
-0.15622927 -0.22253582 -0.21143852 -0.22316283 -0.09526457 -0.24006468 -0.12606777 -0.16243976
-0.24755652 -0.15975451 -0.10141757 -0.15542653 -0.05456225 -0.1476414 -0.10508348 -0.20331877
-0.15564248 -0.14190485 -0.100405924 -0.16342196 -0.043282103 -0.06559931 -0.13045906 -0.12493786
-0.17924377 -0.20796253 -0.10923691 -0.0618679 -0.078131795 -0.10678846 -0.17275406 -0.16765274
-0.13981755 -0.07942795 -0.12270762 -0.17678054
00000000: 05ea 25be 8a15 04be 5e93 c5bd 187f fbbd
00000010: baf1 36be 47b9 05be a67c d2bd 080b bdbd
00000020: fb4a 03be 6c8c 48be 59fd 44be 3d2c dbbd
00000030: 5aa7 40be d105 4dbe 479c 72be 2211 19be
00000040: 49e0 f7bd 64a5 d0bd 7839 06be e1e0 afbd
00000050: 1314 0ebe bf09 1dbe 3a0c 43be 390c 48be
00000060: be77 c2bd a1b1 18be 9aea 36be a2eb cbbd
00000070: e811 a3bd a252 80bd b836 27be 74ce 13be
00000080: e2cf 23be 0fcf 3fbe dc9e b6bd a14d 7abd
00000090: 7b54 44be 2856 2fbe fafa 0dbe b72b 18be
000000a0: 132e 32be e909 58be 610e a2bd 5b4f 52be
000000b0: e593 bfbd 2994 f2bd af4e 0bbe e532 f9bd
000000c0: d2eb 2ebe de72 d9bd f7ee cbbd 5e10 24be
000000d0: 1d66 1fbe 6897 22be 6687 e5bd 5cc0 febd
000000e0: fe56 d1bd e2c4 27be eccb 4ebe b705 44be
000000f0: 7720 47be 09eb 23be 29b3 b1bd e62f 16be
00000100: 91fa 1fbe 6ee0 63be 5783 58be cc84 64be
00000110: 121a c3bd 84d3 75be e917 01be 9c56 26be
00000120: 757f 7dbe b096 23be 04b4 cfbd 2228 1fbe
00000130: aa7c 5fbd 4f2f 17be 0236 d7bd cc32 50be
00000140: be60 1fbe 814f 11be 9fa1 cdbd 1658 27be
00000150: 9348 31bd ee58 86bd 0f97 05be 6cdf ffbd
00000160: ae8b 37be 21f4 54be 9ab7 dfbd 3269 7dbd
00000170: 9003 a0bd e8b3 dabd 71e6 30be 29ad 2bbe
00000180: 552c 0fbe 1fab a2bd 224e fbbd f505 35be

fc.weight f4 [20, 300]
-0.101518765 -0.052249197 -0.06296098 0.01576708 -0.027798235 -0.029740592 0.032969292 -0.0010801421
-0.07999821 0.046090547 -0.057283185 0.04886485 -0.091445796 0.05145466 -0.07213528 0.060723517
-0.05690974 0.0788518 -0.06666034 -0.051450737 -0.041422773 0.015691258 -0.040863875 -0.11914676
-0.037859313 -0.038729526 0.030686524 0.033945568 0.008076652 -0.045372058 -0.013718703 -0.043205168
0.0478617 0.021943292 -0.010487758 0.032768995 0.047879364 -0.061430287 -0.00469675 -0.022383373
-0.007603869 0.0049603237 0.02637075 0.014514284 -0.03148111 -0.057851408 0.09978329 -0.05584818
-0.14860696 0.062303536 0.11439598 -0.074548475 0.012973108 -0.036830142 -0.016728984 0.04206389
-0.10635998 -0.0046068667 -0.014570933 0.03946065 0.10226978 0.02314467 -0.0694304 -0.07265251
-0.009478841 0.010425014 -0.030575767 0.078108005 0.03167177 0.006286053 -0.012292439 -0.05876598
-0.005274804 -0.041140657 0.047615517 -0.019298831 -0.13202417 0.014211109 -0.035799786 -0.034562074
0.049769063 -0.036027662 0.0065549067 -0.051020082 -0.04634075 -0.019467995 0.058676638 -0.07653622
0.07079977 -0.06961816 -0.008321762 0.042470653 0.010333244 -0.094397284 -0.09726331 -0.014087207
0.027713245 -0.08283875 -0.03482569 0.011606005 0.036662932 -0.0267696 -0.054181684 0.0515671
0.016678318 0.06916602 0.077578336 0.01836507 -0.0136943655 0.01985775 -0.09406458 -0.031048177
-0.043904588 -0.034837246 0.0449332 -0.04649865 -0.06008461 -0.029869057 -0.039641585 -0.047821663
-0.032843307 0.13325769 -0.02056095 -0.049073014 0.05501693 0.03965437 -0.08033066 0.015570415
0.066886336 -0.1363971 0.048847307 -0.08395114 -0.0108784875 0.003990073 -0.018522087 0.027507547
0.008733361 -0.0647511 -0.022674093 0.09067213 0.113261424 -0.008893641 -0.10337356 -0.027414966
0.07717142 -0.057143725 0.06880541 0.034926075 -0.05580432 0.06791168 -0.0016934006 -0.026494762
-0.06453087 -0.035116304 -0.19099532 0.048773263 -0.038531102 -0.10991711 -0.04737519 -0.101583704
0.004311346 -0.052790336 -0.032230034 0.08735817 0.022122791 -0.10683557 -0.0017799675 -0.063926004
-0.08301622 -0.06523013 0.074500024 0.073873244 0.010236317 -0.028703948 -0.04580025 -0.015157643
-0.07095046 0.1441112 8.229651e-05 -0.030334087 -0.027303372 0.01673987 0.021645578 -0.005940147
0.0016442519 -0.027833007 -0.010700299 -0.0040010535 -0.055950455 -0.02526186 0.044809513 -0.07649488
-0.09467745 -0.021523193 -0.048325047 0.014607913 0.03852409 -0.043704987 0.02285038 0.04842829
0.11954244 -0.0021081741 -0.040639177 0.008464458 0.112488426 0.03486229 -0.015884254 -0.0015514871
0.029775115 0.11505086 -0.04733922 -0.047491428 0.07570081 -0.12768133 -0.0750112 0.040711638
0.000675916 0.0066397213 -0.013264295 0.068605885 0.04258707 -0.06630913 0.026702372 -0.15201792
0.013634581 0.087978035 -0.010495912 -0.025912246 0.0454933 0.029178144 -0.018009448 0.067430556
-0.056436244 -0.042006277 -0.05649634 -0.028682727 -0.06289139 -0.017674267 0.08149355 -0.03739039
0.0038676048 -0.08805605 0.004281266 -0.02724615 -0.025865465 0.05009562 0.07124962 -0.064944975
-0.052143995 0.050598837 -0.111387074 -0.00014132881 0.03791362 0.095611155 -0.048333563 -0.07219495
00000000: 12e9 cfbd 4103 56bd b0f1 80bd f729 813c
00000010: 20b9 e3bc 8ba2 f3bc cf0a 073d 8e93 8dba
00000020: 1ad6 a3bd 71c9 3c3d c6a1 6abd 8226 483d
00000030: ef47 bbbd 1fc2 523d a9bb 93bd 39b9 783d
00000040: 301a 69bd 0d7d a13d 3785 88bd 02be 52bd
00000050: edaa 29bd f48a 803c e160 27bd 3703 f4bd
00000060: 5e12 1bbd daa2 1ebd 4e62 fb3c 820a 0b3d
00000070: ef53 043c 0dd8 39bd 69c4 60bc e7f7 30bd
00000080: a10a 443d 6bc2 b33c d8d4 2bbc c838 063d
00000090: 271d 443d 539e 7bbd 32e7 99bb 565d b7bc
000000a0: e029 f9bb 368a a23b 7907 d83c 52cd 6d3c
000000b0: 56f2 00bd 99f5 6cbd 2e5b cc3d 10c1 64bd
000000c0: 6c2c 18be fe31 7f3d 7148 ea3d dfac 98bd
000000d0: 298d 543c 34db 16bd 390b 89bc 2f4b 2c3d
000000e0: 43d3 d9bd 33f5 96bb ecba 6ebc 7ea1 213d
000000f0: d272 d13d e499 bd3c 8731 8ebd d7ca 94bd
00000100: 244d 1bbc aecd 2a3c 087a fabc 17f7 9f3d
00000110: 42ba 013d 3cfb cd3b 3a66 49bc 99b4 70bd
00000120: 43d8 acbb 1b83 28bd 7d08 433d 9518 9ebc
00000130: 5831 07be b6d5 683c cca2 12bd f690 0dbd
00000140: a5da 4b3d be91 13bd 8bca d63b 6ffa 50bd
00000150: cccf 3dbd 587b 9fbc ea56 703d 06bf 9cbd
00000160: 78ff 903d f793 8ebd 0058 08bc b5f5 2d3d
00000170: c44c 293c 5d53 c1bd fc31 c7bd 07ce 66bc
00000180: e306 e33c 5da7 a9bd 62a5 0ebd 1d27 3e3c
00000190: df2b 163d ec4b dbbc 9ded 5dbd 0638 533d
000001a0: f8a0 883c eaa6 8d3d 64e1 9e3d 5872 963c
000001b0: 555e 60bc b8ac a23c eea4 c0bd bf58 febc
000001c0: 4cd5 33bd 80b1 0ebd e00b 383d 5e75 3ebd
000001d0: 481b 76bd f4af f4bc 375f 22bd a6e0 43bd
000001e0: b486 06bd b474 083e 706f a8bc c900 49bd
000001f0: 6f59 613d 9f6c 223d 6784 a4bd 0e1b 7f3c
00000200: b4fb 883d aeab 0bbe 1d14 483d 93ee abbd
00000210: af3b 32bc 29bf 823b a2bb 97bc 8257 e13c
00000220: 5f16 0f3c 3a9c 84bd 05bf b9bc 4fb2 b93d
00000230: 9bf5 e73d a2b6 11bc 84b5 d3bd 5a95 e0bc
00000240: 0d0c 9e3d 8a0f 6abd dae9 8c3d a50e 0f3d
00000250: 1293 64bd 4715 8b3d 18f5 ddba 8b0b d9bc
00000260: c328 84bd 1dd6 0fbd 4794 43be 79c6 473d
00000270: cad2 1dbd 391c e1bd 7d0c 42bd 1e0b d0bd
00000280: 3146 8d3b ae3a 58bd a403 04bd d7e8 b23d
00000290: db3a b53c 9bcc dabd cc4d e9ba a3eb 82bd
000002a0: 6804 aabd 6097 85bd 7893 983d db4a 973d
000002b0: 3ab6 273c 8b24 ebbc 0b99 3bbd c357 78bc
000002c0: 7a4e 91bd e391 133e 9a96 ac38 317f f8bc
000002d0: 52ab dfbc 0d22 893c 1152 b13c 91a5 c2bb
000002e0: f083 d73a 0c02 e4bc 4f50 2fbc 451b 83bb
000002f0: 4e2c 65bd f6f1 cebc 2e8a 373d 59a9 9cbd
00000300: 40e6 c1bd 6851 b0bc 7cf0 45bd 0756 6f3c
00000310: 70cb 1d3d 0004 33bd b830 bb3c be5c 463d
00000320: abd2 f43d 4b29 0abb 4475 26bd 83ae 0a3c
00000330: 5560 e63d c3cb 0e3d b21f 82bc 455b cbba
00000340: f1ea f33c c99f eb3d c5e6 41bd 5f86 42bd
00000350: 0709 9b3d e5be 02be 799f 99bd 3fc1 263d
00000360: f42f 313a 0592 d93b 7c52 59bc 3e81 8c3d
00000370: c86f 2e3d 15cd 87bd efbe da3c 96aa 1bbe
00000380: 9463 5f3c d42d b43d 0cf7 2bbc eb45 d4bc
00000390: 2f57 3a3d 0107 ef3c 8d88 93bc 0819 8a3d
000003a0: b129 67bd c60e 2cbd b568 67bd 0af8 eabc
000003b0: 33cd 80bd a0c9 90bc 17e6 a63d aa26 19bd
000003c0: a477 7d3b bb56 b4bd dd49 8c3b 5133 dfbc
000003d0: d0e3 d3bc 1131 4d3d 52eb 913d df01 85bd
000003e0: f194 55bd ba40 4f3d e81e e4bd aa31 14b9
000003f0: 504b 1b3d c8cf c33d 6af9 45bd f2da 93bd

fc.bias f4 [20]
0.053584192 -0.0105272075 -0.0375849 0.04840207 0.026596796 0.045255743 0.041188583 0.011819071
-0.05334217 -0.034681376 -0.04699138 -0.06555455 -0.03460242 -0.048138745 0.03854188 -0.059149873
-0.038611975 0.030269036 0.04443099 -0.04795049
00000000: 197b 5b3d 4f7a 2cbc a0f2 19bd 4041 463d
00000010: 86e1 d93c 165e 393d 5cb5 283d c7a4 413c
00000020: 527d 5abd 0f0e 0ebd 097a 40bd 7741 86bd
00000030: 44bb 0dbd 222d 45bd 17de 1d3d 2347 72bd
00000040: 9727 1ebd c5f6 f73c 45fd 353d bc67 44bd
