models/deep_learning/cnn_model.pth (torch, 508504 bytes, 8 tensors)

convs.0.weight f4 [100, 100, 3]
0	0x3d8d1885	0.06889442
1	0xbc9d1ccb	-0.019178769
2	0xbde56ddb	-0.11202594
3	0xbdcff580	-0.10154247
4	0xbc1b8b6d	-0.009493691
5	0x3d89c749	0.06727464
6	0xbd951166	-0.07278709
7	0xbda70a27	-0.08156233
8	0xbd936513	-0.07197013
9	0x3e0c19c8	0.1368171
10	0x3e34cbd2	0.17655876
11	0xbc5722e7	-0.01313088
12	0x3de11e9c	0.109921664
13	0xbdb0bfd6	-0.0863034
14	0xbd38ae8d	-0.04508834
15	0xbde8577e	-0.11344813
16	0xbe84b935	-0.25922552
17	0xbd76135f	-0.060077067
18	0x3dba7a75	0.09105388
19	0xbda66094	-0.081238896
20	0xbcaf06a4	-0.021365471
21	0xbe28c358	-0.16480768
22	0x3e515edc	0.20446342
23	0x3ced2075	0.02894614
24	0x3d0b5620	0.034017682
25	0xbe5f1e75	-0.21788962
26	0x3d31bd58	0.043393463
27	0xbd11efd1	-0.035629097
28	0x3d86fc42	0.06591083
29	0x3d68d6b0	0.056845367
30	0xbe85cba3	-0.26131925
31	0x3d1d21ab	0.038362186
32	0xbe187280	-0.14887428
33	0x3e0ac7c1	0.13552763
34	0x3ca20456	0.019777458
35	0x3dd74119	0.10510463
36	0x3c49cc41	0.012316764
37	0x3ca5164a	0.02015223
38	0xbd981aa1	-0.07426954
39	0x3baa3faf	0.00519558
40	0xbe405638	-0.1878289
41	0x3da98426	0.082771584
42	0x3d962311	0.07330907
43	0x3ca13be6	0.019681882
44	0xbe0c3ade	-0.13694331
45	0xbcae53ea	-0.021280248
46	0xbd4cadcf	-0.049970444
47	0x3d69174e	0.05690699
48	0xbe8f0124	-0.27930558
49	0xbcabc35d	-0.02096718
50	0xbddf465d	-0.109020926
51	0xbdcfa7f1	-0.10139454
52	0x3c62ebe3	0.013850185
53	0xbdecc9c8	-0.11561924
54	0x3e096f19	0.13421287
55	0x3c93dd2d	0.0180498
56	0x3d95911a	0.073030666
57	0xbe2ac963	-0.16678385
58	0xbdccd166	-0.10000877
59	0xbb092238	-0.0020924937
60	0xbc720689	-0.014772066
61	0xbd839d55	-0.06426493
62	0xbc8515a4	-0.01624567
63	0xbd9acb0f	-0.075582616
64	0xbd075d65	-0.033048052
65	0x3d24c829	0.04022995
66	0x3cf743e0	0.030183733
67	0x3caf1dc9	0.021376507
68	0x3c816940	0.015797257
69	0xbdca02d7	-0.09863823
70	0xbc97ba1e	-0.018521365
71	0x3d3df036	0.04637166
72	0xbea3f638	-0.32023787
73	0x3c4b5efd	0.012412784
74	0xbd5f7bb5	-0.054561336
75	0x3e76a1e4	0.24085194
76	0xbe3ab005	-0.18231209
77	0x3d3199f5	0.043359715
78	0x3deef77a	0.11668296
79	0x3d8e0033	0.06933632
80	0xbd74452b	-0.059636276
81	0x3d029c2f	0.03188723
82	0x3e1a5b0a	0.15073791
83	0x3d0bf7f6	0.03417202
84	0x3e53240a	0.20619217
85	0x3c21f5ce	0.009885265
86	0x3da91c42	0.08257343
87	0x3d823768	0.06358224
88	0x3e1a5b15	0.15073808
89	0x3e012043	0.12609963
90	0x3e080a13	0.13285093
91	0x3d136046	0.035980485
92	0x3e276e25	0.1635061
93	0x3b968020	0.0045929104
94	0xbe00997e	-0.12558553
95	0xbe370568	-0.17873156
96	0x3e54ee1d	0.20793958
97	0xbcebe3b2	-0.028795097
98	0x3d2906e7	0.04126635
99	0xbe4a4ca2	-0.19755796
100	0xbe0d9551	-0.13826491
101	0xbd242451	-0.040073697
102	0xbc13fe33	-0.009032774
103	0xbe52135a	-0.20515195
104	0x3de7bd8c	0.1131545
105	0xbc80f0d1	-0.01573983
106	0xbd0fcfe7	-0.03511038
107	0xbd0afd05	-0.033932704
108	0xbd6f7582	-0.058461674
109	0x3d920722	0.07130267
110	0xbe00f081	-0.12591745
111	0xbd812719	-0.063062854
112	0xbdc04186	-0.093874976
113	0xbe09ed96	-0.13469538
114	0xbdca2f07	-0.09872251
115	0xbe96ec9c	-0.29477394
116	0x3cbdbded	0.023161853
117	0x3e5907bc	0.21194357
118	0x3dd91a67	0.10600739
119	0x3d0cdbc6	0.03438928
120	0x3a6e48e8	0.00090898434
121	0x3ca8d31b	0.020608475
122	0x3d018c88	0.03162816
123	0xbca2133e	-0.019784566
124	0xbe122af5	-0.142742
125	0xbd9d351f	-0.07676148
126	0x3ca481a9	0.020081358
127	0x3e1455e3	0.14485888
128	0x3d460a0d	0.04834943
129	0xbd76b638	-0.06023237
130	0xbcefe310	-0.029283077
131	0x3cc3d9b2	0.023907516
132	0x3df506e3	0.11964204
133	0x3eab0a38	0.33406234
134	0x3e087bf7	0.13328539
135	0x3d57490f	0.05255991
136	0xbd6f7513	-0.05846126
137	0x3d2f9f4c	0.042876527
138	0xbc91a9a6	-0.01778109
139	0x3c80eed5	0.015738884
140	0xbdba4b51	-0.09096397
141	0xbe044e97	-0.12920605
142	0xbd6922c8	-0.056917936
143	0xbd75999c	-0.059960946
144	0xbd7e0dfa	-0.062025048
145	0x3d741b66	0.05959644
146	0xbd2fd78c	-0.04293017
147	0x3cb6d870	0.022320002
148	0xbcd5fb35	-0.026120761
149	0x3e21456d	0.1574914
150	0xbd8eff15	-0.06982247
151	0x3d4b50af	0.049637493
152	0xbde23507	-0.110452704
153	0xbe715404	-0.23567206
154	0xbd601293	-0.054705214
155	0xbc8cbd2e	-0.017180052
156	0xbd7bb46c	-0.06145136
157	0x3dbe8fd8	0.0930478
158	0x3e513596	0.20430598
159	0x3c0e6203	0.00869036
160	0xbcc29673	-0.02375338
161	0xbd503548	-0.050832063
162	0x3ea510ae	0.32239288
163	0xbc7db520	-0.015485078
164	0xbcfe9c0d	-0.03108027
165	0x3e112b1c	0.14176601
166	0x3de825cf	0.113353364
167	0x3e5bf908	0.21481717
168	0xbdbf0819	-0.093277164
169	0xbe0047d7	-0.12527405
170	0xbea321fd	-0.31861869
171	0xbcaa4f99	-0.020789908
172	0x3c7115ee	0.014714701
173	0xbcdcce29	-0.026953774
174	0xbdd2465f	-0.102673285
175	0xbde50565	-0.111826696
176	0xbe010e58	-0.12603128
177	0x3df6948c	0.12040052
178	0x3c236992	0.0099739
179	0xbd920dc5	-0.071315326
180	0x3d247766	0.04015293
181	0xbdcbb821	-0.09947229
182	0x3e01df82	0.12682918
183	0xbcd48da1	-0.02594644
184	0xbbdc524b	-0.0067236773
185	0x3c956dd0	0.01824084
186	0xbd5ea53b	-0.054356795
187	0x3dc0f9fb	0.0942268
188	0x3e1d5ada	0.15366688
189	0x3cb57aca	0.022153277
190	0xbe099423	-0.13435416
191	0xbd6ff337	-0.058581557
192	0x3cfc3558	0.030787155
193	0xbd4d6c17	-0.05015191
194	0xbe13deea	-0.14440504
195	0x3e039427	0.12849484
196	0xbb04420c	-0.0020180969
197	0x3d993da2	0.07482459
198	0xbe0b4f5c	-0.13604492
199	0xbea18a1b	-0.3155068
200	0xbdb17b52	-0.086660996
201	0xbe8a74f2	-0.27042347
202	0xbda739b6	-0.08165304
203	0x3ca3bb37	0.019986732
204	0x3d74c03b	0.059753638
205	0x3d45b16c	0.048264906
206	0xbd0d2f50	-0.03446895
207	0xbe4674b4	-0.19380456
208	0xbd8c666e	-0.068554744
209	0xbd861423	-0.065468095
210	0xbd17ee91	-0.03709275
211	0xbe17d681	-0.1482792
212	0xbc426554	-0.011864979
213	0xbe1c6324	-0.15272194
214	0xbd104337	-0.03522035
215	0x3cc28379	0.023744332
216	0xbd31cea2	-0.04340995
217	0xbc4eb40f	-0.0126161715
218	0x3cc83317	0.024438424
219	0x3e083369	0.13300861
220	0x3d2741da	0.040834285
221	0x3e486fb7	0.19573866
222	0xbc4339cd	-0.011915636
223	0x3d4b0912	0.049569197
224	0x3e16f929	0.14743485
225	0x3c8607e6	0.016361188
226	0x3e3690cb	0.17828672
227	0x3e684b16	0.22684893
228	0xbdd37e39	-0.103268094
229	0xbcbec2c3	-0.023286229
230	0xbdfdfdbf	-0.12401914
231	0xbdf72997	-0.120684795
232	0x3dfa2445	0.12213949
233	0x3d4733bc	0.048633322
234	0x3dcd086d	0.10011373
235	0x3e183f23	0.14867835
236	0x3dcbfe8a	0.09960659
237	0x3d9145de	0.07093404
238	0x3cc3717a	0.02385782
239	0xbd495361	-0.049151782
240	0xbd03b9ff	-0.0321598
241	0xbe3affae	-0.18261597
242	0xbd73bfb0	-0.05950898
243	0x3dbae06a	0.09124835
244	0xbceec67c	-0.02914738
245	0x3da4565b	0.080242835
246	0xbda24e8d	-0.079251386
247	0x3ce16074	0.027511813
248	0x3b897da5	0.004195886
249	0x3d94a838	0.07258648
250	0xbd5efdd9	-0.054441307
251	0xbcd17523	-0.02556855
252	0xbba9f373	-0.005186492
253	0x3e1a9ccf	0.1509888
254	0x3e08b080	0.1334858
255	0xbe68d82c	-0.22738713

convs.0.bias f4 [100]
0	0xbede4133	-0.43409118
1	0xbf54b150	-0.8308306
2	0xbedf1add	-0.43575183
3	0xbf0ba120	-0.5454273
4	0xbef798de	-0.48358816
5	0xbf4cb55a	-0.7996422
6	0xbf22950a	-0.63508666
7	0xbf3923b4	-0.72320104
8	0xbf0ecf58	-0.5578513
9	0xbecfb2e9	-0.40566185
10	0xbeb9fb55	-0.36324564
11	0xbeb93071	-0.3616977
12	0xbf0d3692	-0.5516139
13	0xbebd3f00	-0.36962128
14	0xbed166dc	-0.40898788
15	0xbed87933	-0.42279968
16	0xbf064551	-0.5244952
17	0xbf0c4f0f	-0.54808134
18	0xbf20393c	-0.6258733
19	0xbeee6121	-0.46558478
20	0xbf20d48f	-0.6282434
21	0xbf27a885	-0.65491515
22	0xbedfedaa	-0.4373601
23	0xbf146765	-0.5797027
24	0xbf074be3	-0.5285017
25	0xbf13d179	-0.57741505
26	0xbf07cc59	-0.53046185
27	0xbf176382	-0.5913621
28	0xbf08fe47	-0.53512996
29	0xbec91eb3	-0.39281234
30	0xbf189e57	-0.5961661
31	0xbec0e31e	-0.37673277
32	0xbee64090	-0.44971132
33	0xbf1bcb6f	-0.6085729
34	0xbec69aa2	-0.3878985
35	0xbf153c4c	-0.5829513
36	0xbed9ea36	-0.425615
37	0xbef4288c	-0.47687185
38	0xbf245bae	-0.6420239
39	0xbef6c361	-0.48195937
40	0xbf167891	-0.5877772
41	0xbf048870	-0.5177069
42	0xbecc0127	-0.3984463
43	0xbf1cc729	-0.61241394
44	0xbea3b58d	-0.3197445
45	0xbf186704	-0.5953219
46	0xbef7f1f5	-0.48426786
47	0xbf132c56	-0.57489526
48	0xbf0da42d	-0.5532864
49	0xbf122771	-0.5709143
50	0xbee4ced5	-0.4468905
51	0xbed7a29e	-0.42116255
52	0xbea898dd	-0.32929125
53	0xbf25d2f5	-0.6477502
54	0xbf0fea09	-0.56216484
55	0xbf029831	-0.51013476
56	0xbf19ea58	-0.60123205
57	0xbf2408f8	-0.64076185
58	0xbede456b	-0.43412337
59	0xbf13fcd5	-0.57807666
60	0xbe7bee9c	-0.24602741
61	0xbef010d2	-0.46887833
62	0xbf066ba9	-0.52508026
63	0xbef8e696	-0.48613423
64	0xbebf15c6	-0.373213
65	0xbf11520e	-0.5676583
66	0xbf19ffd1	-0.6015597
67	0xbea2c2f4	-0.31789362
68	0xbee4adf9	-0.4466398
69	0xbebfdfa7	-0.3747532
70	0xbf188475	-0.59577113
71	0xbf2846f3	-0.6573326
72	0xbf07a474	-0.5298531
73	0xbf0c0aff	-0.5470428
74	0xbf26386b	-0.64929837
75	0xbee178c4	-0.4403745
76	0xbf03f84c	-0.51550746
77	0xbf2b28d8	-0.668592
78	0xbef000f9	-0.46875742
79	0xbebbdbf7	-0.36691257
80	0xbf0173f0	-0.5056753
81	0xbf267b59	-0.65031964
82	0xbf1dafa5	-0.6159614
83	0xbf3174f7	-0.693191
84	0xbed568af	-0.4168143
85	0xbf2bd602	-0.67123425
86	0xbf18ce62	-0.59689915
87	0xbeee1275	-0.46498457
88	0xbf25c793	-0.6475765
89	0xbf14898a	-0.5802237
90	0xbf012cdf	-0.5045909
91	0xbeea22d4	-0.45729697
92	0xbee6c318	-0.4507072
93	0xbef1869b	-0.47173008
94	0xbed52bc8	-0.41634965
95	0xbecc0303	-0.39846048
96	0xbeee2969	-0.46515968
97	0xbee730ba	-0.45154363
98	0xbf281411	-0.6565562
99	0xbec0f896	-0.37689656

convs.1.weight f4 [100, 100, 4]
0	0x3c8b55ac	0.017008625
1	0xbd0eed18	-0.03489408
2	0x3c814cd4	0.015783705
3	0x3d8572e7	0.065160565
4	0x3d16010a	0.036622085
5	0x3d87c16b	0.066286884
6	0x3d765d4b	0.060147565
7	0xbc002d65	-0.007823323
8	0xbdde153a	-0.108438924
9	0x3cf5ea5f	0.030018983
10	0x3d8b63fe	0.06806181
11	0xbe099310	-0.13435006
12	0x3db98649	0.09058816
13	0x3d68f042	0.056869753
14	0x3ea461d9	0.32105902
15	0x3e24f58c	0.16109294
16	0x3dc09514	0.094034344
17	0xbdc321f1	-0.09527958
18	0xbdd2bbdc	-0.102897376
19	0x3d82f24c	0.06393871
20	0x3daca63e	0.08430146
21	0xbdf810c3	-0.12112572
22	0xbecfc3e9	-0.40579155
23	0x3d94681c	0.0724642
24	0x3d295cf1	0.0413484
25	0x3d6f9ca3	0.05849899
26	0xbe82f3a0	-0.25576496
27	0xbe2508d8	-0.16116655
28	0xbd87e43b	-0.066353284
29	0x3b3c9581	0.0028775635
30	0xbea4220f	-0.32057235
31	0xbd592076	-0.053009473
32	0xbda74718	-0.08167857
33	0xbe1d0779	-0.15334882
34	0xbd828542	-0.06373073
35	0x3d339ca3	0.043850552
36	0xbc185f7f	-0.009300112
37	0x3d2de73c	0.04245685
38	0x3e0a80c1	0.13525678
39	0xbde124a0	-0.10993314
40	0xbdff0c6f	-0.124535434
41	0xbd8ce955	-0.06880442
42	0xbea1b174	-0.31580698
43	0xbe11c3ed	-0.14234896
44	0xbc50ab7d	-0.0127361985
45	0xbe3548a6	-0.17703494
46	0xbe1761c1	-0.14783384
47	0x3e79e856	0.24405035
48	0xbb04bfdc	-0.0020255959
49	0xbdbeaef2	-0.09310712
50	0xbd001e0f	-0.031278666
51	0x3dec5a01	0.115406044
52	0xbd8bad33	-0.068201445
53	0xbcd9c024	-0.026580878
54	0xbe409c58	-0.1880964
55	0x3cfe63e5	0.031053493
56	0x3e0ca081	0.13733102
57	0x3baf2681	0.005345166
58	0x3deb9b43	0.11504223
59	0x3d62ac22	0.05533994
60	0x3cf391c2	0.029732589
61	0x3e368b9c	0.17826694
62	0x3e5eace8	0.21745646
63	0xbcd2bf2a	-0.02572592
64	0xbe072b96	-0.1320022
65	0xbcc3c3f7	-0.023897154
66	0x3d08ea9a	0.03342686
67	0xbdc2c09f	-0.09509396
68	0xbd86b669	-0.06577761
69	0xbe4077e8	-0.1879574
70	0xbe4cbda4	-0.19994217
71	0xbe27956a	-0.1636559
72	0xbe11b4d3	-0.14229135
73	0xbcfdd6d3	-0.030986225
74	0x3e81c1cc	0.25343168
75	0x3d89cc2e	0.06728397
76	0xbd33bfc7	-0.043884065
77	0x3c9f0d4a	0.019415516
78	0x3e5c6c29	0.21525635
79	0x3d671bcc	0.056422994
80	0x3e0c8bbc	0.1372518
81	0x3d7aab08	0.061198264
82	0x3c9a65f2	0.01884744
83	0x3d9a586a	0.07536395
84	0x3e39de81	0.18151285
85	0x3cc1207c	0.02357506
86	0x3e0f6f68	0.14007342
87	0x3dfc9c44	0.12334493
88	0xbc1a4306	-0.009415394
89	0x3dd136c3	0.10215523
90	0x3da1413a	0.07873769
91	0xbcda9100	-0.02668047
92	0xbddf1a99	-0.10893745
93	0xbde79dee	-0.113094196
94	0x3e7bf020	0.24603319
95	0xbd44d5eb	-0.04805557
96	0xbe20ad44	-0.15691096
97	0xbc9046ff	-0.017611979
98	0xbe8bb533	-0.27286682
99	0xbe47b3a9	-0.19502129
100	0xbbceb46f	-0.0063081305
101	0x3e82521c	0.2545327
102	0xbe276249	-0.16346087
103	0x3d84c236	0.06482355
104	0x3c65849b	0.014008666
105	0x3d82ba2b	0.06383165
106	0xbd184f05	-0.037184734
107	0x3d9d93e1	0.07694221
108	0xbd40fa88	-0.047113925
109	0x3c347437	0.011014036
110	0xbe6f11da	-0.23346654
111	0xbdde446f	-0.108528964
112	0xbc358aba	-0.011080438
113	0xbaf34345	-0.0018559477
114	0xbd87a102	-0.06622507
115	0xbdef9a74	-0.116993815
116	0x3d40e42b	0.047092598
117	0x3e4a447c	0.19752687
118	0x3de6c31f	0.11267685
119	0xbe168480	-0.14698982
120	0x3d95efea	0.073211506
121	0x3e4932cb	0.19648282
122	0x3d8e91ed	0.06961427
123	0xbdaec3d2	-0.085334435
124	0xbe6a5600	-0.22884369
125	0xbdee8e70	-0.116482615
126	0xbd86df17	-0.0658552
127	0xbdcbdea6	-0.09954576
128	0x3d783da7	0.06060567
129	0xbc3bec12	-0.011469858
130	0xbdb751ff	-0.089511864
131	0x3cf93d37	0.030424697
132	0xbdb45278	-0.08804792
133	0xbce5ce46	-0.02805246
134	0xbd3461a3	-0.044038426
135	0xbcc9fccd	-0.024656678
136	0x3e23a940	0.15982533
137	0xbdd925db	-0.106029235
138	0xbebd1da7	-0.36936685
139	0xbc987169	-0.018608766
140	0x3ce90b26	0.028447699
141	0x3e07b84a	0.13253894
142	0x3c2feea1	0.010738046
143	0x3de91fe1	0.113830335
144	0xbc11bb79	-0.008894795
145	0xbda774f2	-0.081766024
146	0x3e6925c4	0.22768313
147	0x3d820005	0.0634766
148	0xbe5a2898	-0.21304548
149	0xbb192c07	-0.002337219
150	0xbc093b6b	-0.008375983
151	0x3db8186c	0.08989033
152	0xbe3845a2	-0.17995313
153	0xbe7a0420	-0.24415636
154	0xbe8ada29	-0.27119568
155	0xbe13a5e8	-0.14418757
156	0xbd7e1db5	-0.06204005
157	0x3dff3595	0.12461392
158	0x3d90c095	0.07067982
159	0x3e412945	0.188634
160	0x3c8c6e51	0.017142447
161	0x3cfb3256	0.03066365
162	0x3e407e96	0.18798289
163	0xbda89466	-0.0823143
164	0x3c3d8dac	0.011569422
165	0xbc3f8ebb	-0.011691744
166	0xbe269550	-0.16267896
167	0x3e625dda	0.22106114
168	0x3c1ba70c	0.009500276
169	0x3c23f606	0.010007387
170	0xbcc553f7	-0.02408789
171	0x3cb6db05	0.022321234
172	0xbddefd9e	-0.108882174
173	0xbe481a3a	-0.19541255
174	0x3c8f57f9	0.017498003
175	0x3b818856	0.00395302
176	0x3d1681b8	0.036744803
177	0x3e377748	0.17916596
178	0xbcabbc20	-0.020963728
179	0x3e347176	0.17621407
180	0x3da0f451	0.078591
181	0x3e16833d	0.14698501
182	0x3d02579d	0.031821836
183	0x3d4082fb	0.046999913
184	0x3cea2911	0.028584035
185	0x3cb16f42	0.021659497
186	0x3d51f53d	0.051259268
187	0x3dea98f3	0.11454954
188	0xbe02c1f0	-0.12769294
189	0x3da96a99	0.08272285
190	0xbb73fa90	-0.0037228204
191	0x3cb4afa1	0.022056403
192	0x3dceb4cf	0.1009308
193	0x3df96456	0.12177341
194	0xbe201d03	-0.15636067
195	0x3d8667e5	0.06562785
196	0x3d81b858	0.06333989
197	0xbd1d5992	-0.0384155
198	0xbd906b3b	-0.070517026
199	0x3d9a56d2	0.07536091
200	0xbe0c9674	-0.13729268
201	0x3d66fa0c	0.056390807
202	0xbe3b80a8	-0.18310797
203	0x3c62a0ee	0.013832314
204	0xbe0ae12e	-0.13562462
205	0xbe41acda	-0.18913594
206	0xbebe4e44	-0.37169087
207	0xbd84b38d	-0.06479559
208	0xbdcee41d	-0.10102103
209	0x3d5577d8	0.052116245
210	0xbe5edce2	-0.21763948
211	0x3daffae4	0.085927755
212	0xbd999646	-0.074993655
213	0xbe0a9354	-0.13532764
214	0xbe59fc7d	-0.21287723
215	0xbaab7c40	-0.0013083294
216	0x3e7bc535	0.24586947
217	0x3d5230ac	0.05131595
218	0x3e472b9e	0.19450232
219	0x3c8c06a1	0.017093005
220	0x3d9fcf6c	0.078032345
221	0x3e089622	0.13338521
222	0x3e495b43	0.1966372
223	0x3e22ee7b	0.15911286
224	0xbd31d8f2	-0.043419786
225	0x3e05977b	0.13046066
226	0xbd81f833	-0.06346168
227	0x3d895e7e	0.06707476
228	0xbd3a605d	-0.045502055
229	0x3db8db77	0.090262346
230	0xbe97f09c	-0.29675758
231	0x3d2c755f	0.04210412
232	0xbdbfe809	-0.09370429
233	0xbe3b0db3	-0.18266945
234	0xbe4512c5	-0.19245441
235	0xbe098e41	-0.13433172
236	0x3d5b971c	0.053610906
237	0xbbe8b47d	-0.007101594
238	0x3b681acb	0.003541636
239	0xbe2d7e2a	-0.16942659
240	0x3d634311	0.05548388
241	0xbdb728de	-0.08943342
242	0x3e19edb1	0.15032078
243	0x3e28ee36	0.1649712
244	0x3e1ec8fa	0.15506354
245	0x3dc4fec7	0.096189074
246	0x3d521488	0.05128911
247	0x3b7e50e5	0.003880554
248	0x3dfd3571	0.12363709
249	0x3e10eb46	0.1415225
250	0x3cbb6d63	0.022879308
251	0x3debbad4	0.11510244
252	0xbd639701	-0.05556393
253	0xbec78c17	-0.38974068
254	0xbea709b7	-0.326246
255	0xbe00c0d8	-0.12573564

convs.1.bias f4 [100]
0	0xbf00c6be	-0.50303257
1	0xbedf22d5	-0.43581262
2	0xbec16da0	-0.3777895
3	0xbe7b6f16	-0.24554095
4	0xbe86b35a	-0.2630871
5	0xbeaa5037	-0.33264324
6	0xbeee0b86	-0.46493167
7	0xbf19e0f6	-0.6010889
8	0xbf04f6ab	-0.51938885
9	0xbeb38069	-0.35058907
10	0xbf2cf63b	-0.6756322
11	0xbefe4ddb	-0.49668774
12	0xbf1c8c5b	-0.61151665
13	0xbec40874	-0.382877
14	0xbedf2530	-0.4358306
15	0xbf03355b	-0.5125329
16	0xbef667eb	-0.48126158
17	0xbf08fced	-0.53510934
18	0xbf20672b	-0.6265742
19	0xbf27a591	-0.6548701
20	0xbf23662f	-0.63827795
21	0xbf2b2563	-0.6685392
22	0xbefeef61	-0.49792007
23	0xbf086169	-0.53273636
24	0xbefa36ff	-0.48870084
25	0xbf220e5a	-0.6330315
26	0xbee231ab	-0.4417852
27	0xbefa8325	-0.4892818
28	0xbeb7fea5	-0.35936466
29	0xbf0386d5	-0.5137761
30	0xbf1b9775	-0.6077798
31	0xbebf24c2	-0.3733273
32	0xbf1ec8af	-0.6202497
33	0xbe879cdd	-0.26486865
34	0xbf200f51	-0.6252337
35	0xbf16da0c	-0.58926463
36	0xbf0e9137	-0.5569033
37	0xbf155280	-0.5832901
38	0xbf239ffe	-0.63916004
39	0xbee2a2c2	-0.442648
40	0xbec32704	-0.38115704
41	0xbe9b5d3d	-0.30344573
42	0xbef2b086	-0.47400302
43	0xbef71588	-0.48258615
44	0xbf07459e	-0.528406
45	0xbf047f47	-0.5175671
46	0xbec2c598	-0.38041377
47	0xbf0d8883	-0.55286425
48	0xbeb7989f	-0.35858628
49	0xbee0d6c4	-0.43913853
50	0xbed26c91	-0.41098455
51	0xbedde2dc	-0.43337142
52	0xbef0ac92	-0.4700666
53	0xbeb506fa	-0.35356885
54	0xbf01940a	-0.50616515
55	0xbedc1876	-0.42987412
56	0xbf1b50fe	-0.6067046
57	0xbf0e0c81	-0.5548783
58	0xbf2d5a67	-0.6771607
59	0xbe98f6e1	-0.29875854
60	0xbf043f9a	-0.5165955
61	0xbed3aede	-0.4134435
62	0xbec686e3	-0.38774785
63	0xbee5de1f	-0.44896027
64	0xbea1de2d	-0.3161482
65	0xbec4cbff	-0.38436887
66	0xbedc11a7	-0.42982218
67	0xbecaf26c	-0.39638078
68	0xbec466b0	-0.38359594
69	0xbe8b7bf8	-0.27243018
70	0xbe7625bd	-0.24037834
71	0xbed3d300	-0.41371918
72	0xbf0e1fe7	-0.5551743
73	0xbf0d73b3	-0.5525467
74	0xbf0a6ee8	-0.5407548
75	0xbf0eb088	-0.55738115
76	0xbf0c03fa	-0.5469357
77	0xbeeecae3	-0.46639165
78	0xbefadfaf	-0.48998782
79	0xbeda0268	-0.4257996
80	0xbefdeba2	-0.49593836
81	0xbf03db4a	-0.51506484
82	0xbec4745a	-0.3837002
83	0xbec6dea8	-0.38841748
84	0xbf0c952d	-0.54915124
85	0xbf1c5999	-0.61074215
86	0xbedb09cd	-0.42780915
87	0xbf198152	-0.5996295
88	0xbef22f9f	-0.47301957
89	0xbf047385	-0.5173877
90	0xbf036686	-0.51328313
91	0xbe9d7ae0	-0.3075781
92	0xbedaacea	-0.42710048
93	0xbf037657	-0.5135245
94	0xbf0553db	-0.5208108
95	0xbefc1c02	-0.49240118
96	0xbf1e491f	-0.61830324
97	0xbe864b0b	-0.26229128
98	0xbf1e80b1	-0.6191512
99	0xbee0685c	-0.4382962

convs.2.weight f4 [100, 100, 5]
0	0xbbb88987	-0.005631629
1	0x3e3a8cad	0.18217726
2	0x3d8418ea	0.064500645
3	0x3de045ef	0.10950839
4	0x3e67134a	0.22565952
5	0x3d3b467d	0.04572152
6	0x3d746682	0.05966807
7	0xbd930e97	-0.07180517
8	0x3c553eca	0.013015458
9	0xb9e24b33	-0.00043162107
10	0xbe2d93e8	-0.16950953
11	0xbd825429	-0.063637085
12	0xbe1f17e8	-0.15536463
13	0x3e0d42c1	0.13794996
14	0xbe008b17	-0.12553059
15	0x3c53b43f	0.012921392
16	0x3de09c49	0.10967309
17	0x3dc3d124	0.09561375
18	0x3d5e45c3	0.05426575
19	0x3e13aa6f	0.14420484
20	0x3e09edd6	0.13469633
21	0x3dba5e55	0.09100024
22	0xbcca97f7	-0.024730666
23	0x3ce835eb	0.028346023
24	0x3eba49ab	0.3638433
25	0x3b8f3d35	0.00437131
26	0xbe38721b	-0.18012278
27	0xbd6fa4e4	-0.05850686
28	0xbd7088fe	-0.058724396
29	0xbdc2f6c8	-0.09519726
30	0xbce92a6a	-0.028462607
31	0xbb04d2a5	-0.0020267155
32	0xbdff7e4d	-0.12475262
33	0xbe27c586	-0.16383943
34	0xbe02cf14	-0.12774307
35	0x3da36b1c	0.07979414
36	0x3e1faf81	0.15594293
37	0xbd5bfda5	-0.05370869
38	0xbc9b53bf	-0.018960832
39	0x3e74fb48	0.23923981
40	0xbdad81c1	-0.08472014
41	0xbba371e2	-0.004987941
42	0x3c510f66	0.012760019
43	0xbe423dfa	-0.18968955
44	0xbd75a656	-0.059973083
45	0xbd9869a2	-0.07442023
46	0x3dfd8e8c	0.12380704
47	0x3be18d22	0.0068832794
48	0xbd151ffb	-0.036407452
49	0xbd842db0	-0.06454027
50	0xbe90a5e7	-0.28251573
51	0xbd62f160	-0.055405974
52	0x3c30d811	0.010793702
53	0xbdedca1b	-0.11610814
54	0xbe03882c	-0.12844914
55	0x3c011cdf	0.007880419
56	0xbd0dc193	-0.034608435
57	0xbb21a1c6	-0.0024663075
58	0xbdcc7759	-0.09983701
59	0x3e126acb	0.14298551
60	0x3d82b11d	0.06381438
61	0xbe1bf4b4	-0.15230066
62	0xbbdb2e5c	-0.006688876
63	0xbda821c8	-0.08209568
64	0xbd35e051	-0.044403378
65	0x3dab85b4	0.08375111
66	0xbe2f9160	-0.171453
67	0xbe60ac63	-0.2194076
68	0xbde84b69	-0.11342508
69	0x3e2de684	0.16982466
70	0xbe0c3785	-0.13693054
71	0xbe48ab2a	-0.19596544
72	0xbd732fb9	-0.059371684
73	0xbe1663a7	-0.14686452
74	0xbe18c2ec	-0.14918107
75	0xbc63eec1	-0.013911904
76	0x3bbf290d	0.005833751
77	0x3b3b18aa	0.0028548636
78	0x3d42c7d7	0.047553863
79	0x3d1506a8	0.0363833
80	0x3d150990	0.036386073
81	0xbeac69f2	-0.3367458
82	0xbd91030f	-0.070806615
83	0xbc2e91f9	-0.01065492
84	0x3d4dddcf	0.05026036
85	0xbdcce8cb	-0.10005339
86	0x3d4b67be	0.049659483
87	0xbc4cec91	-0.012507574
88	0xbe0d6bcb	-0.13810651
89	0x3db808f6	0.08986084
90	0xbd613ddc	-0.054990634
91	0x3e1e6169	0.15466847
92	0xbdddbe01	-0.10827256
93	0x3d1d3af8	0.038386315
94	0xbd2296cb	-0.03969459
95	0xbd14795f	-0.03624856
96	0xbd0a19a0	-0.033715844
97	0x3d1474fc	0.036244377
98	0xbce61866	-0.028087806
99	0xbec52155	-0.38501993
100	0x3cc8f2e6	0.024529886
101	0x3d0ed3d8	0.03487
102	0x3e253d69	0.16136707
103	0x3e971152	0.29505402
104	0x3ba6ff57	0.005096357
105	0x3e5324fb	0.20619576
106	0x3c789671	0.015172587
107	0x3e066b34	0.13126832
108	0xbbaae6fc	-0.0052155238
109	0xbe1cfaba	-0.1533002
110	0xbe301f39	-0.1719941
111	0xbc718ad3	-0.014742571
112	0x3e393e33	0.18090133
113	0x3b1a0191	0.0023499469
114	0xbda62fc8	-0.08114582
115	0xbe2752de	-0.16340205
116	0x3c15073c	0.009095963
117	0x3d2f49e1	0.042795066
118	0xbc56d6d6	-0.013112744
119	0xbe7a4556	-0.24440512
120	0x3d96ebf8	0.07369226
121	0xbdbaaea7	-0.091153435
122	0xbd84b3b7	-0.064795904
123	0x3e386400	0.18006897
124	0x3d70e356	0.058810554
125	0x3d6a0755	0.0571359
126	0x3e6997f8	0.22811878
127	0xbdf79f03	-0.12090876
128	0xbd5d196b	-0.05397932
129	0xbd1b2875	-0.03788038
130	0xbe63dda0	-0.22252512
131	0xbe25f856	-0.16208014
132	0xbe401bc1	-0.18760587
133	0xbcc0859e	-0.023501214
134	0x3d782b11	0.060587946
135	0xbda729e6	-0.08162288
136	0x3e67599c	0.22592777
137	0xbdc85eec	-0.0978373
138	0x3d90ce95	0.070706524
139	0x3dfd82c4	0.12378457
140	0x3db4deac	0.08831534
141	0x3df7ce9e	0.12099956
142	0x3e0ef141	0.13959219
143	0x3e3fd439	0.187333
144	0x3d032d13	0.032025408
145	0x3d0fd1f9	0.035112355
146	0x3e27e90e	0.16397497
147	0x3e1c9c0c	0.15293902
148	0xbdc0e57f	-0.09418773
149	0x3d28b91b	0.041192155
150	0xbe12040b	-0.14259355
151	0xbd588b42	-0.05286718
152	0xbc2a94ff	-0.0104115
153	0xbd2cf0a2	-0.042221673
154	0x3eb59e3f	0.35472295
155	0xbe8f9f5a	-0.28051263
156	0xbe8fe8a1	-0.2810717
157	0xbe254ff6	-0.16143784
158	0xbdf3005c	-0.11865303
159	0xbef62cd6	-0.48081082
160	0x3e7e118a	0.24811378
161	0x3dfbb8ef	0.12291133
162	0xbd4ec0f8	-0.050476998
163	0x3dbd9d87	0.092585616
164	0x3e4403fc	0.19142145
165	0x3df24d3a	0.11831136
166	0xbe201adf	-0.1563525
167	0xbe45c8ad	-0.19314833
168	0xbe36da38	-0.17856681
169	0x3c0532ca	0.008129785
170	0xbbf7b972	-0.0075599486
171	0xbb8d2b1d	-0.004308118
172	0x3d826610	0.06367123
173	0x3e2c4c9c	0.16826099
174	0x3e5a3a12	0.21311215
175	0xbe4f4582	-0.20241359
176	0xbd2628fa	-0.040566422
177	0xbd22204e	-0.03958159
178	0xbdea224a	-0.11432321
179	0x3e2ca9c9	0.16861643
180	0xbdd01dc7	-0.101619296
181	0xbdd34d7f	-0.103175156
182	0xbe41c8a4	-0.18924195
183	0xbe40b90b	-0.18820588
184	0x3ea357ac	0.31902826
185	0xbe1c41c4	-0.15259463
186	0x3da38520	0.07984376
187	0xbe445417	-0.19172703
188	0xbcdd94df	-0.027048526
189	0xbe97ba4e	-0.29634327
190	0x3dd64a85	0.10463432
191	0x3d09e382	0.033664234
192	0xbd435795	-0.047690947
193	0xbe267b8e	-0.1625807
194	0x3e7d3a34	0.24729234
195	0xbe240f39	-0.16021432
196	0xbcea9dac	-0.028639637
197	0xbc7698e9	-0.015051105
198	0x3d8afd7a	0.06786628
199	0xbe6dd658	-0.23226297
200	0x3daf0485	0.08545784
201	0x3def49df	0.11684012
202	0x3d030ca6	0.031994484
203	0xbd38ea0c	-0.04514508
204	0x3eb21422	0.34780985
205	0x3ce46d8c	0.027884267
206	0xbe378e43	-0.17925362
207	0xba985189	-0.0011620979
208	0x3e184211	0.14868952
209	0xbce1b381	-0.027551414
210	0x3e1ccb4f	0.15311931
211	0x3d120d2d	0.035657097
212	0x3e286238	0.16443717
213	0x3d410b01	0.047129635
214	0x3ea91ca8	0.33029675
215	0xbd83ecff	-0.06441688
216	0xbd9648f8	-0.073381364
217	0xbcc5da02	-0.024151806
218	0xbdde34cb	-0.10849913
219	0xbbb7a219	-0.0056040403
220	0xbb51871a	-0.0031971396
221	0x3e141b52	0.14463547
222	0x3d9def57	0.07711666
223	0x3e21421c	0.15747875
224	0x3e7e0a8e	0.24808714
225	0x3e3a679a	0.18203583
226	0xbbc78ad7	-0.006089549
227	0x3d8367c0	0.06416273
228	0x3da41f29	0.08013756
229	0xbd6c6696	-0.05771502
230	0x3e27d6e2	0.16390565
231	0x3dcb896a	0.09938319
232	0xbd053911	-0.032525126
233	0x3e0b8c0d	0.13627644
234	0xbd831805	-0.06401066
235	0x3e657d56	0.22411093
236	0x3dc1efe9	0.09469587
237	0x3dbe0821	0.09278894
238	0xbd7cd7f4	-0.061729386
239	0xbdcd0ac8	-0.10011822
240	0xbcc06474	-0.0234854
241	0x3d961ba0	0.07329488
242	0xbde65836	-0.11247294
243	0xbdf0e957	-0.11763256
244	0x3da8dbc4	0.08245042
245	0x3dbf06dc	0.0932748
246	0x3e642821	0.22280933
247	0xbdc628de	-0.096757635
248	0xbe24b2fe	-0.16083905
249	0x3e27196a	0.16318288
250	0x3d4155aa	0.047200836
251	0xb9ec62f4	-0.00045087154
252	0x3c044b4a	0.008074591
253	0xbe088894	-0.1333335
254	0x3d8e9e28	0.0696376
255	0xbe49e1f8	-0.19715106

convs.2.bias f4 [100]
0	0xbeb2c4b0	-0.34915686
1	0xbf23eedf	-0.64036363
2	0xbe9e048d	-0.30862847
3	0xbf063284	-0.5242083
4	0xbea713e0	-0.3263235
5	0xbed9007d	-0.42383185
6	0xbee52498	-0.4475448
7	0xbf04ee19	-0.5192581
8	0xbee9c416	-0.45657414
9	0xbea93f0e	-0.3305592
10	0xbed8088f	-0.4219403
11	0xbed5f4b0	-0.41788244
12	0xbecbbc3b	-0.39792046
13	0xbee62947	-0.44953367
14	0xbef6f80b	-0.48236117
15	0xbeed3495	-0.4632918
16	0xbf017b41	-0.50578696
17	0xbf096292	-0.5366603
18	0xbec48ceb	-0.38388762
19	0xbee06972	-0.43830448
20	0xbee2d05c	-0.4429959
21	0xbef02979	-0.4690664
22	0xbe99d51b	-0.300454
23	0xbef80446	-0.4844076
24	0xbedada39	-0.42744616
25	0xbec0c30f	-0.37648818
26	0xbed4d4e0	-0.4156866
27	0xbf087ef7	-0.5331873
28	0xbedf78c2	-0.43646818
29	0xbf0d306b	-0.55152005
30	0xbf156a9b	-0.5836579
31	0xbee6bed9	-0.4506748
32	0xbea456a2	-0.32097346
33	0xbf0b6976	-0.54457796
34	0xbeaf7dd6	-0.34275693
35	0xbe7a79da	-0.24460545
36	0xbeff4fa2	-0.49865443
37	0xbee908b0	-0.4551444
38	0xbecf0961	-0.40436843
39	0xbedec44b	-0.43509135
40	0xbebee9aa	-0.37287647
41	0xbeeec3ad	-0.46633664
42	0xbe94b64c	-0.2904533
43	0xbec680ef	-0.38770244
44	0xbeefd8a4	-0.4684497
45	0xbef023a3	-0.4690219
46	0xbec8b867	-0.39203188
47	0xbee363b0	-0.44411993
48	0xbeccd1ce	-0.40003818
49	0xbebfb509	-0.37442806
50	0xbe58f660	-0.21187735
51	0xbf1cf25e	-0.6130732
52	0xbede4c20	-0.43417454
53	0xbe96cfcf	-0.2945542
54	0xbec15b29	-0.37764862
55	0xbf14c8eb	-0.58119076
56	0xbea46365	-0.32107082
57	0xbf067b44	-0.5253184
58	0xbeabb0cb	-0.3353332
59	0xbe9c28ac	-0.3049978
60	0xbef76ce7	-0.48325273
61	0xbea765ea	-0.32694942
62	0xbf118456	-0.56842554
63	0xbeb95624	-0.36198533
64	0xbed6e2c8	-0.41969895
65	0xbf04abc8	-0.5182462
66	0xbed1f941	-0.41010478
67	0xbe8e6e34	-0.27818453
68	0xbf1807b5	-0.5938676
69	0xbefd7377	-0.49502155
70	0xbec010ed	-0.37512913
71	0xbf0ae1b6	-0.5425066
72	0xbee4b5ba	-0.44669896
73	0xbed081d2	-0.40724045
74	0xbeed3cb3	-0.46335372
75	0xbf046c7d	-0.5172804
76	0xbeaef6de	-0.3417272
77	0xbea968ab	-0.33087668
78	0xbf0ceff0	-0.55053616
79	0xbee47368	-0.44619298
80	0xbf0917f2	-0.5355216
81	0xbe73c7fb	-0.23806755
82	0xbe9a8c37	-0.301851
83	0xbee0bfcd	-0.43896332
84	0xbeb00170	-0.34376097
85	0xbf1425a1	-0.5786992
86	0xbef99105	-0.48743454
87	0xbee788b1	-0.45221475
88	0xbee8256a	-0.45341045
89	0xbebd4de8	-0.369735
90	0xbed33606	-0.41252154
91	0xbeebebed	-0.46078435
92	0xbe9720ae	-0.2951712
93	0xbea20e84	-0.316517
94	0xbefe20f2	-0.4963451
95	0xbef77b8d	-0.4833645
96	0xbecadb99	-0.39620665
97	0xbe786674	-0.24257833
98	0xbe8f968d	-0.2804455
99	0xbee62a56	-0.44954175

fc.weight f4 [20, 300]
0	0xbcdaae4d	-0.026694441
1	0xbd1a6df8	-0.03770253
2	0x3d9aa402	0.07550813
3	0xbc97ed81	-0.018545868
4	0xbcfbb64d	-0.030726576
5	0xbd8b0bdd	-0.06789372
6	0xbd396ac9	-0.045267854
7	0x3d136e1c	0.03599368
8	0x3d6e9017	0.058242884
9	0xbd224dc2	-0.039624937
10	0x3bdffb9b	0.0068354136
11	0xbc4eca8a	-0.012621531
12	0x3cfb8a83	0.030705696
13	0x3c2f088a	0.010683188
14	0x3d26c3e6	0.040714167
15	0xbd76d626	-0.06026282
16	0x3c7f3993	0.015577692
17	0x3b6de40a	0.0036299252
18	0x3c12444c	0.008927416
19	0x3d1cf3da	0.038318492
20	0x3b3844e0	0.0028117225
21	0xbdbb0ebb	-0.09133669
22	0xbcb7901c	-0.022407584
23	0xbd0367c3	-0.032081377
24	0x3e19988e	0.14999601
25	0xbcfc6e48	-0.030814305
26	0x3e0a7d3b	0.13524334
27	0xbd9b76ac	-0.07590994
28	0xbd5a2c2e	-0.05326479
29	0xbb89a9cb	-0.004201149
30	0xbe9b1066	-0.3028595
31	0xbd7dce42	-0.06196428
32	0xbd577896	-0.052605234
33	0x3d29bc3e	0.041439287
34	0xbcccbc15	-0.024992028
35	0xbd4d04a1	-0.050053243
36	0xbc989848	-0.0186273
37	0x3bd540b3	0.006507957
38	0xbdea80e3	-0.114503644
39	0xbd858328	-0.06519157
40	0xbda343f7	-0.07971948
41	0xbe316f1b	-0.1732754
42	0x3c87e1bf	0.016587136
43	0xbe96be3d	-0.29442015
44	0xbc7cf690	-0.015439644
45	0xbd20bc14	-0.039241865
46	0xbd58770f	-0.052847918
47	0xbd060cc7	-0.03272703
48	0x3bbcae15	0.005758057
49	0x3bc6166a	0.0060451524
50	0x3c47bf55	0.012191613
51	0x3de40ad7	0.1113488
52	0xbd157373	-0.036487054
53	0xbd63d89f	-0.055626508
54	0x3d8c2fd4	0.0684506
55	0xbda8007b	-0.08203217
56	0x3d1e3fd1	0.03863508
57	0xbd78b966	-0.060723685
58	0xbbea1f5a	-0.0071448507
59	0xbd41c1fc	-0.04730414
60	0x3d70b2e4	0.058764353
61	0xbd481813	-0.048851084
62	0x3c53eb69	0.012934544
63	0xbd55a47d	-0.05215882
64	0x3c5ded7a	0.013545388
65	0xbdd3f8ec	-0.103502125
66	0xbd9ae853	-0.075638436
67	0xbd413216	-0.047166906
68	0x3c818715	0.015811482
69	0xbdc3c7b6	-0.09559576
70	0xbdc7d397	-0.097571544
71	0x3d68045b	0.05664478
72	0x3c57b929	0.013166704
73	0xbe253da0	-0.1613679
74	0x3d8d530a	0.06900604
75	0x3d72e474	0.0592999
76	0xbd402cdb	-0.046917778
77	0xbb2677e0	-0.002540104
78	0x3cd9100e	0.026496913
79	0x3d856d63	0.065150045
80	0xbddd4bce	-0.10805474
81	0xbd45a6a9	-0.048254643
82	0x3d004e7f	0.03132486
83	0xbd29ed35	-0.041485984
84	0xbcebfa93	-0.028806007
85	0xbd2606f0	-0.04053396
86	0xbe289c20	-0.16465807
87	0xbd114c3a	-0.035473086
88	0xbd1811bc	-0.037126288
89	0xb9dfa0e6	-0.00042653753
90	0xbd1f031b	-0.03882132
91	0xbcfe971e	-0.031077918
92	0xbd4567eb	-0.048194807
93	0xbc2e4adb	-0.010637964
94	0xbd830606	-0.06397633
95	0x3d44dfd7	0.048065033
96	0xbd802380	-0.06256771
97	0xbd9ff7c9	-0.07810933
98	0x3c69b5d6	0.0142645445
99	0x3db89ce2	0.09014298
100	0xbbc525ed	-0.006016484
101	0x3e0160ae	0.12634537
102	0x3e1d6afc	0.15372843
103	0xbc91b87d	-0.017788166
104	0xbcfd7822	-0.030941073
105	0x3ceef347	0.029168738
106	0x3c0b2c24	0.008494411
107	0xbd40e849	-0.047096524
108	0x3da9e8e8	0.082963765
109	0xbd7cc3a2	-0.061710007
110	0x3cb5c84e	0.02219024
111	0xbd4e2e4a	-0.050337113
112	0xbd4b94c2	-0.049702413
113	0xbc5ca7a3	-0.013467702
114	0x3d558e1f	0.05213749
115	0x3cf9a4c9	0.030474083
116	0x3decfbbf	0.11571454
117	0xbb77bb69	-0.0037800914
118	0x3c24798f	0.010038747
119	0xbd80c19b	-0.06286927
120	0xbe5c312b	-0.21503131
121	0xbe579694	-0.21053535
122	0xbddebae0	-0.10875487
123	0xbd71546f	-0.058918413
124	0x3dd284cd	0.10279236
125	0x3dd8d764	0.105879575
126	0xbd5b72a4	-0.053576127
127	0xbdbb2d28	-0.09139472
128	0x3c39bd60	0.011336654
129	0xbd050dc6	-0.03248384
130	0xbe102348	-0.14075959
131	0xbd3f68c5	-0.046730775
132	0x3e0ea73f	0.13930987
133	0xbdbc835b	-0.092047416
134	0x3dc4207a	0.09576507
135	0xbd16214f	-0.03665286
136	0xbd632e8e	-0.05546432
137	0xbba7a487	-0.0051160487
138	0xbdb5decb	-0.08880385
139	0x3dfb304f	0.122650735
140	0x3cf94ab2	0.030431125
141	0xbd02ff18	-0.031981558
142	0xbd671524	-0.056416646
143	0xbe062f84	-0.13104063
144	0xbd9498f5	-0.07255737
145	0x3d115f21	0.035491113
146	0x3d6293fe	0.055316918
147	0x3d9a2124	0.07525852
148	0x3d611cad	0.054958988
149	0xbcf51b54	-0.029920258
150	0xbdfbf2be	-0.12302159
151	0x3c5f82a9	0.013641992
152	0x3e04a129	0.12952103
153	0x3cae8d8c	0.02130773
154	0x3cefae4b	0.029257914
155	0x3c175348	0.009236164
156	0x3db56fe1	0.0885923
157	0xbcc421fa	-0.023941983
158	0x3d114d2c	0.035473987
159	0x3cf86dc3	0.030325776
160	0x3cb0ab0f	0.021565942
161	0x3c6c2ef1	0.014415489
162	0x3ac7f636	0.0015255872
163	0xbd23bb02	-0.039973266
164	0xbb81f15b	-0.0039655394
165	0x3c5f1143	0.013614955
166	0x3c67948f	0.01413454
167	0x3cedd766	0.029033374
168	0x3d5de717	0.054175463
169	0x3dc0b249	0.09409005
170	0xbb99d236	-0.0046942485
171	0xbd9dc97b	-0.07704445
172	0xbce405b9	-0.02783476
173	0xbd24f312	-0.040270872
174	0xbd2a2ff0	-0.041549623
175	0xbe0e81ee	-0.13916752
176	0xbe45d89d	-0.19320913
177	0xbd3636bb	-0.04448579
178	0xbd497f88	-0.04919389
179	0x3d950204	0.07275775
180	0xbcd00755	-0.025394121
181	0x3da57454	0.080788285
182	0x3d9b9515	0.075967945
183	0xbdd875be	-0.105693325
184	0xbaebb042	-0.0017981606
185	0x3d4372f2	0.047717042
186	0xbd344043	-0.044006597
187	0xbc9effc3	-0.019409066
188	0xbd67469e	-0.05646383
189	0xbe0c7d54	-0.13719684
190	0x3b9fb4bb	0.0048738397
191	0x3d424d08	0.047436744
192	0xbc26fba1	-0.010191829
193	0x3a4dfe41	0.0007858016
194	0xbc7b4d78	-0.015338294
195	0xbdc65326	-0.09683828
196	0x3b1ebdee	0.0024222094
197	0xbba42649	-0.0050094468
198	0xbe01d2ad	-0.12678023
199	0x3ddfa5a9	0.10920269
200	0xbd614ce4	-0.05500497
201	0xbd5c39f1	-0.053766195
202	0x39cb865f	0.00038819292
203	0xbe11356b	-0.14180534
204	0x3d3971f2	0.045274682
205	0xbdc9a58c	-0.09846029
206	0xbcba48b4	-0.022739746
207	0xbd16f60c	-0.036855742
208	0x3c1bbb0a	0.009505043
209	0xbd1a9696	-0.037741266
210	0x3c954913	0.018223321
211	0x3ce177f6	0.027523022
212	0xbb070c75	-0.002060679
213	0xbcb4fe5f	-0.02209395
214	0xbd8a4bda	-0.06752749
215	0xbd51ce3b	-0.051222067
216	0xbd6ab498	-0.057301134
217	0xbe358684	-0.17727095
218	0xbc558248	-0.01303155
219	0xbcdce733	-0.026965713
220	0xbdc7f444	-0.09763387
221	0x3d6582b8	0.056032866
222	0xbce400f1	-0.02783248
223	0xbd8713b7	-0.06595557
224	0xbd62c667	-0.055364992
225	0xbd4808c9	-0.048836503
226	0x3cdce9d4	0.026966967
227	0x3daeffad	0.0854486
228	0xbd542513	-0.05179317
229	0xbdc0133b	-0.09378668
230	0xbda09438	-0.078407705
231	0xbd469c7c	-0.04848908
232	0x3e12736a	0.1430184
233	0x3dcc74dd	0.099832274
234	0x3cd30724	0.02576024
235	0xbd10fed7	-0.035399284
236	0xbd85cc7c	-0.06533143
237	0x3c759dc2	0.014991226
238	0xbc5d613a	-0.01351195
239	0xbdf069a3	-0.117388986
240	0xbd8024a4	-0.06256989
241	0xbd84cc32	-0.0648426
242	0xbcb8518a	-0.022499818
243	0x3db7edf5	0.089809336
244	0xbd2566c6	-0.040381216
245	0xbc92c2a6	-0.017915081
246	0xbcb87891	-0.022518428
247	0x3d885a93	0.06657901
248	0x3d0c8cbe	0.03431391
249	0xbdc3f5b1	-0.09568346
250	0x3db2d3aa	0.08731778
251	0x3db865a5	0.09003762
252	0xbe102125	-0.14075144
253	0x3c412bb2	0.011790203
254	0xbe3177c3	-0.17330842
255	0x3e1be702	0.15224841

fc.bias f4 [20]
0	0x3cb5ac4a	0.02217688
1	0xbdc5da19	-0.096607395
2	0x3c05d787	0.0081690615
3	0x3e010481	0.12599374
4	0xbdfe8075	-0.12426845
5	0xbde56df6	-0.11202614
6	0x3e26686b	0.1625077
7	0xbd766dec	-0.060163423
8	0xbe334767	-0.17507707
9	0xbde3b4fa	-0.11118503
10	0xbda94b04	-0.08266261
11	0xbd779ed3	-0.0604542
12	0xbe5da361	-0.21644355
13	0xbd49ea4c	-0.04929571
14	0xbca41b74	-0.020032622
15	0xbbdbc06d	-0.0067062886
16	0xbc37d2c4	-0.011219684
17	0xbd57364a	-0.05254201
18	0x3d9b2473	0.075753115
19	0x3de1759a	0.11008759
