models/deep_learning/CNNClassifier.pth (torch, 11776 bytes, 4 tensors)

conv1.weight f4 [100, 1, 3]
00000000: f9d3 003e 770c 65be 7011 2f3e 1d03 9bbe
00000010: 4798 8ebe 9876 3e3e da52 0f3e a2c8 e13e
00000020: cf3d 98bc ae6c 9fbe 0203 213f 6f78 92bd
00000030: 481f 80be 83f7 013d c9df f93e 687a a4be
00000040: d17d 223e 530b d13e 33f3 903d 5598 dabe
00000050: 1d84 353f 66a1 5fbe 9ac9 cd3e 8bbb a0be
00000060: 72db 7d3e 8b32 823e 35a1 a0be dce9 de3e
00000070: 7cdb bd3f 9ad9 a63e c53f 3939 c399 bd3f
00000080: 242c 6b3e d06a 9cbd 0a3d b73e a471 ca3e
00000090: 8452 4ebe d777 ef3e 49e6 2a3f 9a7b 73bd
000000a0: f10b c6be 17a5 873e c9a0 babe ac3a 1a3e
000000b0: a202 29be 88d2 f03e d49e 4fbd f266 143f
000000c0: d9b3 f1be 0c79 923e fba8 f33e 8471 97be
000000d0: 9c0c 993e 7a2a 7dbe 4d51 b1be 2d93 1abe
000000e0: 5904 a73e 4da7 1f3f 36c1 273f 9ea2 4b3f
000000f0: cb0b 333f 8c48 8f3e dd45 943e 6bf0 983e
00000100: 5065 fe3e 7672 9a3e 3108 cd3e 041b c83e
00000110: 6431 05be 91fc fe3e df9e 153d 0484 ed3e
00000120: e057 523e fdb4 9c3e 7c77 96be adfe ab3e
00000130: 7fcd 12be d8af e3be bf8e 0b3f 3b59 cdbe
00000140: 82c9 c53d 8757 ddbe 0250 52be 00c6 24bc
00000150: cfc3 e3be 2219 ed3e b297 8e3e 6075 493d
00000160: 70ea 82bd 3e13 9abe c01d 06bd 3949 08bf
00000170: ca52 5ebe 4068 c8be 195d 62bc 5c8e b53e
00000180: 6e66 f53e 3b51 c73d 123b 063f ff4f 0e3f
00000190: bcc1 2b3f fb3b 293f ed61 96be 808c 8c3e
000001a0: 6249 123f e75b 82be d469 203e 3cad d5bd
000001b0: 6665 1a3e 2450 263e 4e1e 903e ccc7 43be
000001c0: 70c4 7ebd 164f 87be f248 ad3e 8178 5c3e
000001d0: 6c17 a9be 1422 ef3e 9ea3 093f 840e fc3e
000001e0: 7ea7 6cbe b753 a3be bf3c 8c3e 05c8 373d
000001f0: 291f d43e 157b 333b e6c7 5cbe 00cc a1bc
00000200: 60d1 6cbd e023 3dbe 74cb 4f3e 5af9 3d3f
00000210: 7b86 25be ac1f ad3e 07e7 e93e 8a60 0f3e
00000220: b5ff 0640 9a7b 3f3f a168 2cbe 5582 e2be
00000230: 4a93 133f c3c4 873d dfa2 253f e58f 713e
00000240: 0da3 f7be aed9 01bf 3472 de3e bfe4 a03e
00000250: f88b 04bf 3735 a83e 64a0 933e 913d df3e
00000260: fd5a e0be 3530 b2be 165d 8e3b e948 153f
00000270: 3865 8abe 47c1 90be 9767 193f 5048 72bd
00000280: e5fd 07bf b446 7c3e b2d2 0dbf 0016 96ba
00000290: 8053 f33d 4336 183f f838 a63e 84fc 38be
000002a0: d4df b3be fd90 413e ea50 163e c2f6 093f
000002b0: 28b2 3b3f 2958 8dbe 96d9 f53e cb41 743e
000002c0: 9827 85bd 7390 063f 955a b4bc 2825 97be
000002d0: 0831 5d3d e9d4 d33e 0862 81be a427 e6be
000002e0: 2664 0b3f e91e 59be d2d2 053f e31e a73d
000002f0: f9d1 cebe 6d51 0fbe dba8 9c3e e550 d53e
00000300: f54e 763e 0aa4 89bd 527c f43e 40b3 e4bd
00000310: 7c8a cabe e75b 00bf 9583 113f 3479 d6be
00000320: 590c 553e d671 69be 4f07 933f 1fb7 223e
00000330: 661e acbe 16d9 e13e 3d5c 533d 7641 b9be
00000340: 547d 86be 8e36 0cbe cebe 11bf 4c81 c1bd
00000350: 46c5 8abe 21cd 63be 4e5e 063e 3de4 0ebf
00000360: c68b 1dbe 54b2 78be 90c7 6ebd 449f 4e3e
00000370: 5a2d 6e3e 08ef 143f 5efc ebbd a84a df3e
00000380: 5a53 df3d a00d f2be 13f4 d6be 3ad3 d3be
00000390: 0237 5fbe f022 cb3d dafe a73e 40e0 aabc
000003a0: 7d0a 0dbf 3011 bbbd eb18 823e c78b 2b3f
000003b0: f961 363f 279f a6be ac41 4b3e 8ef1 b03e
000003c0: bd71 4dbe feb4 09be 881d 083f 7345 b13f
000003d0: 3d15 b03f dacf da3f 9a35 d4be 103b 4fbd
000003e0: 0457 a2be dc90 103f b4ad bdbe d8c3 e33c
000003f0: 0696 193f 355d 953e 30a0 d1be e429 123f
0.12580861 -0.22368036 0.17096496 -0.30275813 -0.27850553 0.18599927 0.13996449 0.44098383
-0.01858416 -0.31137604 0.62895215 -0.07151877 -0.25023866 0.031730186 0.48803547 -0.3212464
0.15868308 0.40828952 0.070776366 -0.42694345 0.70904714 -0.21838912 0.40192872 -0.31393084
0.24790743 0.25429186 -0.3137299 0.43537796 1.4832606 0.32587892 0.00017666731 1.4812549
0.22966057 -0.0763756 0.35788757 0.39539826 -0.20148665 0.46771118 0.6675764 -0.059444048
-0.38680986 0.2649314 -0.36450794 0.15061444 -0.1650491 0.47035623 -0.05068858 0.5796958
-0.47207525 0.28607976 0.4758986 -0.29578793 0.29892433 -0.24723235 -0.3463234 -0.15095206
0.32620504 0.62364656 0.6552919 0.7954501 0.6993987 0.27985036 0.2895955 0.29870924
0.4968667 0.30165452 0.40045312 0.3908311 -0.13007122 0.49802068 0.036528464 0.46389782
0.20541334 0.30606833 -0.29388034 0.3359274 -0.14336203 -0.44470096 0.5451469 -0.4010714
0.09657575 -0.4323084 -0.20538333 -0.0100569725 -0.44485328 0.46308237 0.2785011 0.049184203
-0.06392372 -0.30092806 -0.032743216 -0.5323673 -0.21711269 -0.39142036 -0.0138161415 0.35460174
0.4792971 0.0973229 0.52433884 0.55590814 0.6709249 0.6610715 -0.29371586 0.27450943
0.57143223 -0.2546074 0.1566537 -0.104334325 0.15077743 0.16241509 0.2814812 -0.19119185
-0.062199056 -0.26427525 0.33844715 0.21530344 -0.33025682 0.46705687 0.53765285 0.49229825
-0.23110768 -0.31899807 0.27390096 0.044868488 0.41430023 0.0027386595 -0.2156063 -0.019750595
-0.057816863 -0.18470716 0.20292455 0.74208605 -0.16164581 0.33813226 0.45684072 0.1400167
2.109357 0.74797976 -0.16836788 -0.4424006 0.5764662 0.06629326 0.64701647 0.23590048
-0.48366585 -0.5072278 0.43446505 0.3142452 -0.51776075 0.328531 0.28833306 0.4360166
-0.4381942 -0.34802404 0.004344593 0.5831438 -0.2703035 -0.2827246 0.5992369 -0.059150994
-0.5312179 0.24636346 -0.5539962 -0.0011450648 0.11881161 0.59457797 0.3246534 -0.18065077
-0.35131705 0.18902965 0.14679304 0.5389215 0.7331872 -0.27606323 0.48017567 0.23853223
-0.065016925 0.5256416 -0.02201585 -0.29520535 0.054001838 0.41373375 -0.25270104 -0.44952118
0.5444969 -0.21203198 0.5227481 0.08160188 -0.4039457 -0.13995905 0.30597576 0.4166328
0.24053557 -0.06720741 0.477511 -0.11167002 -0.3955878 -0.5014023 0.56841403 -0.41889346
0.20805492 -0.22797331 1.1486605 0.15890168 -0.33616942 0.44110936 0.051601637 -0.36182755
-0.26267493 -0.13692686 -0.5693177 -0.094484895 -0.27103633 -0.22246219 0.13121912 -0.55817014
-0.1538535 -0.24286777 -0.058295786 0.20177943 0.23259488 0.5817723 -0.115227446 0.43611646
0.1090457 -0.4727602 -0.4198309 -0.4137209 -0.21798328 0.09918773 0.32811624 -0.020858884
-0.5509413 -0.09134138 0.25409636 0.6701016 0.71243244 -0.325433 0.1984927 0.34559292
-0.20062919 -0.1344795 0.5317006 1.3849319 1.3756481 1.7094681 -0.41447145 -0.050593436
-0.31707013 0.5647104 -0.37046587 0.027803347 0.5999454 0.29172674 -0.40942526 0.5709517

conv1.bias f4 [100]
00000000: a0d6 f03e 26ab 7abe 70fb 3d3e b2b1 c93e
00000010: a205 4cbe defa b43d 2e62 903e c05a 233f
00000020: 4e9b b83e f86d c13e 5c7b ad3e c064 de3e
00000030: 5f1e e13e b211 333f 1097 153f 3a2c 073e
00000040: 8929 023f c3c4 fd3e a244 073f f253 133e
00000050: fd14 ba3d f2e0 06bf b037 053e 1478 2a3f
00000060: 2469 c13e baab e63e be60 2c3f 20d6 463e
00000070: 3a7d 2c3f 93c0 02bf 3cda bcbd 95ee c13e
00000080: 4212 f83e d350 2b3b e0ae 963a 0a81 50be
00000090: cefa b03e 82cf 113f 71d4 c33e 3e24 2f3e
000000a0: 04da ac3e 41b5 bb3e 74fa 1bbc 5111 743e
000000b0: 5402 7d3d 43f2 bf3e ab67 363e 4f86 273f
000000c0: 9b0a f7be 47f7 153f fa9a fa3e a651 203d
000000d0: f7f8 053f 6c3f 05bf 8379 d3be a9aa 383e
000000e0: 6239 923e 2abb 2e3f 4c2b 963e 19c0 853e
000000f0: a14a 323f df7a a8be ac57 b4be 9941 923e
00000100: 664a b2be 56ef 6cbe c67b ae3e 5387 bf3e
00000110: c32e e53e 129d 79be 2951 02bf 85ed 033f
00000120: 0274 cfbe f3f3 ce3d ba52 b93e 1622 10bf
00000130: e868 c2bb 4dcc 9abe a144 363f 0c44 eebe
00000140: 93a8 e0be 4441 3a3f 2f65 af3e f32c fa3e
00000150: ff26 943d bf9e ed3e 7c61 b5bc c045 bcbc
00000160: a266 033f c9cb cc3d ab6a 64be dc52 46be
00000170: 9fc4 bdbe aa51 34be 299f c63d f82f 1e3e
00000180: 0f7d b93e 49ca 573e 4857 8b3e 8b50 2a3e
0.47038746 -0.2447935 0.18552947 0.39393383 -0.19924024 0.088369116 0.28199905 0.6381035
0.36055988 0.37779212 0.33883178 0.4343624 0.43968484 0.69948876 0.5843363 0.13200465
0.5084463 0.4956418 0.528391 0.14387491 0.090860344 -0.5268699 0.13009524 0.66589475
0.37775528 0.45052892 0.67335117 0.1941762 0.6737858 -0.51075095 -0.092213124 0.37877336
0.4845143 0.0026140704 0.0011496209 -0.20361724 0.3456635 0.56957257 0.38248017 0.17103669
0.33760083 0.36661723 -0.009520162 0.2383473 0.0617698 0.3748952 0.17812984 0.65439314
-0.4825028 0.5858044 0.48946363 0.039140366 0.52333015 -0.520499 -0.41303644 0.18033852
0.28559405 0.6825434 0.29329908 0.2612312 0.69645125 -0.32906243 -0.35223138 0.28565672
-0.34822387 -0.23138174 0.34078807 0.37407932 0.4476224 -0.24376324 -0.5090509 0.515343
-0.40518194 0.10105123 0.36195928 -0.5630201 -0.005932916 -0.30233994 0.7119847 -0.4653629
-0.43878612 0.7275584 0.34256884 0.4886242 0.072340004 0.46410176 -0.02214121 -0.022982478
0.5132848 0.099998064 -0.22306316 -0.19367546 -0.37064072 -0.17609277 0.09698326 0.15447986
0.36228225 0.2107326 0.27215028 0.16632287

fc.weight f4 [20, 100]
00000000: e0e8 373e 3655 8cbd c5bf a03d 7f79 153e
00000010: ec33 783c bed6 923e 18ea b53d 61e8 283d
00000020: 7c60 003d a3e5 cf3d bd4c 423e 9035 243e
00000030: 7bec 9d3d af0c b43d 6af5 f53b de5e 303e
00000040: 1c3c 473e 63c3 ff3d b0f0 693d 0743 a73e
00000050: 37c7 c93e 0a47 95bc 5b02 963e cecf 733d
00000060: 73ce 053e 6317 073c b575 d63d ca25 6c3b
00000070: 3884 f13d 022f a4bd e7ad c53d 041b 4b3d
00000080: e1e7 123e f67b 643e 3e91 253d 604c 2c3b
00000090: a66e 113c 4958 c83d 5524 0a3e 5845 b03d
000000a0: b810 5b3e 0af3 0f3e 7a94 b3bd d938 673e
000000b0: 4c67 ba3e f997 543e 8b66 583e 2d7f 043e
000000c0: 703f 393c c132 1e3d 0bbd c73c 688a 3a3c
000000d0: e6f1 bf3d 5f99 aa3d aac7 6dbd 18b4 9d3e
000000e0: dc41 e63c d5ba 123e 19b9 833d 061f 763d
000000f0: 862c 0a3e 10c7 213a 97ad 0cbd 7aca 573e
00000100: 4a4d 42bd 1663 423d acce 203e 321a 4e3d
00000110: 9412 8d3d dad3 92bd cd17 a33d f82a 933c
00000120: 7aca 473d 1128 cf3d 8c4b c33d 00e0 1cbb
00000130: de62 d83a 2083 b4bb 1744 423e 9fed cb3d
00000140: 5743 e0bb 2f07 a53f ec8e 273e 8235 c13d
00000150: 3919 643e a760 123e 69e3 8a3e 8f2a bd3d
00000160: bfaf e83c ae80 1e3e 3a1a 61bd 2bbb 9fbd
00000170: 3876 c4bc 8813 2ebd 053e 3b3e 443c 5b3e
00000180: fe8a 153d 1c98 1a3e 7429 443e baa6 423e
00000190: b2ad 82bd a34b 67bd 8650 70bd 4892 1abe
000001a0: f4f0 80bd 4341 27be fa88 eebd 4d9e 85bd
000001b0: 987a 18be f490 a4bd 5db9 89bd f365 0abe
000001c0: b93d 06be a042 30be db34 a0bd 7dbf 45be
000001d0: 0104 09be 65a1 9abd 3e4a 09be 3625 97be
000001e0: 8931 a6be f164 333b 53aa 4ebe bca9 72bd
000001f0: 5153 2ebe 3bdf 4fbe c1cd 20be 81f8 9bbd
00000200: a5f4 febd 823a 643d 627c 043d 3eec babd
00000210: 710d e1bd dbfb 5cbe 746b 91bd 1db7 25bd
00000220: b51a 72bd 2896 9fbd 4a53 15be 43a7 22bd
00000230: 3441 38be 843a 36be 4697 f03c 7d65 ecbd
00000240: 47f8 b2be 0fd8 c1bd f58b e7bc 3450 26be
00000250: d904 c13d 68b6 cbbd 50a8 0abe dbfe e9bd
00000260: 2a67 51be 0a25 99bd 9a0b 2fbd c525 c7be
00000270: a5fd 4fbe 820b 4bbd 060f 0cbe bd37 e4bd
00000280: 30d1 eebd 6245 d43c 68ac 83bc 5cea dabc
00000290: 19cd 51bd 93c8 8dbd 62e9 2bbe d41c 29be
000002a0: cb2f 52be 0074 b738 2508 aebd a682 a7bd
000002b0: ca79 9ebd b1d7 e4bd e44b 29be 285f 5e3c
000002c0: 65e3 acbc 3a8d 233d e180 45be f6bc 7a3d
000002d0: 9ff1 ab3d e361 a4bf 3099 41be ee2a 40be
000002e0: 8349 1ebe 0ac4 46be 69f0 5bbe 7dec b03d
000002f0: eb9c c7bd d5a9 d1bd 341c 393c 9741 02bd
00000300: ae37 4ebd e3dd 2a3d 14c2 37be 9229 bbbd
00000310: 720c e2bb 91f7 f8bd 6ff8 fbbd 6fe3 5dbe
00000320: cd1b 1fbe 5882 c7bd 2cc7 68bd 8018 17be
00000330: b88c 16be 8a7c 3ebe 4d75 59be 4269 e1bd
00000340: 364b 08bd a34c 5abe ab89 4dbd 8cad e5bc
00000350: 525f 84bd 93f3 9fbd 43c6 afbd 79bc a0bd
00000360: b018 94bd 3e1b 5bbe 43b6 edbd b8d5 bebe
00000370: 2349 adbe dc34 a33c 78d9 afbe 3d69 1cbe
00000380: 6604 49be 2c83 52be 6fdf 34bd aaad 23be
00000390: 6d20 3dbe ab54 93bd efe2 853d 953d 45be
000003a0: 81ea 07bd 5187 29be 9767 00be 8650 a8bd
000003b0: a7a4 41be f85b 55be f950 10be a7c1 97bd
000003c0: c0b7 17bd d4ff 05be 0865 cfbd e63e 7abe
000003d0: ed6a 75be 35db 0abe 199b 1bbe 2cce ddbd
000003e0: 3f04 cb3d cbe8 4abe 754e 60bd d78a 7cbd
000003f0: 8065 4cbe eb56 ae3d 346e 86bd 0fea 89be
0.17959929 -0.0685219 0.07849077 0.14597128 0.015149098 0.2867946 0.088825405 0.04123724
0.031342015 0.101512216 0.18974586 0.16036057 0.07711121 0.08791482 0.0075060623 0.17223689
0.19456524 0.12488439 0.057114303 0.32668325 0.394098 -0.01822235 0.29298672 0.05952435
0.13067035 0.008245322 0.104716696 0.0036033266 0.11792797 -0.080167785 0.0965231 0.04958631
0.14346267 0.22312912 0.040421717 0.002629064 0.008876478 0.09782464 0.13490422 0.08606976
0.21393096 0.14057556 -0.08768554 0.2258028 0.36406934 0.20761098 0.21132867 0.12939139
0.011306629 0.03862262 0.024382135 0.011385538 0.0937231 0.083300345 -0.058051743 0.30801463
0.028107576 0.14329083 0.06431789 0.06008818 0.13493547 0.0006171325 -0.034345236 0.21073332
-0.04743699 0.047457777 0.15703839 0.05031795 0.06888309 -0.07169314 0.07963524 0.017964825
0.04877708 0.10115064 0.09535894 -0.0023937225 0.0016508957 -0.0055087954 0.18971287 0.09957432
-0.006843965 1.2892817 0.16363114 0.09434034 0.22275247 0.14294682 0.27126625 0.09236633
0.028404115 0.15478775 -0.054956652 -0.07799371 -0.023982152 -0.042499095 0.18285377 0.21409708
0.036509506 0.15097088 0.19156438 0.19008914 -0.06380786 -0.056468617 -0.058670543 -0.15094864
-0.06295958 -0.16333489 -0.1164722 -0.06524334 -0.14890516 -0.0803546 -0.06724808 -0.13515453
-0.13109483 -0.17212915 -0.078225814 -0.19311328 -0.13380434 -0.07550315 -0.13407227 -0.29520577
-0.32459667 0.0027373398 -0.20182161 -0.059243903 -0.1702397 -0.203 -0.15703489 -0.07615758
-0.12449006 0.05571986 0.032345183 -0.09127091 -0.10988892 -0.2158045 -0.07100573 -0.040457834
-0.0591075 -0.07792312 -0.14582554 -0.039710294 -0.17993623 -0.1779576 0.029369008 -0.11542795
-0.34955046 -0.09465038 -0.028264979 -0.16241533 0.09424753 -0.099469006 -0.13540769 -0.11425563
-0.2044951 -0.07477768 -0.042735673 -0.38896003 -0.20311601 -0.04957152 -0.13677606 -0.11143444
-0.11660993 0.02591199 -0.01607342 -0.02672308 -0.051220987 -0.06923022 -0.16788247 -0.16514903
-0.20526044 8.747727e-05 -0.08497647 -0.08179216 -0.07738073 -0.11173952 -0.16532856 0.013572492
-0.021104524 0.039929606 -0.19287445 0.061215363 0.08395695 -1.2842373 -0.18906093 -0.18766376
-0.1545773 -0.1941072 -0.21478428 0.086388566 -0.097467266 -0.10237471 0.011298228 -0.031800833
-0.05034607 0.041715514 -0.17945129 -0.09138788 -0.0068984563 -0.121565945 -0.12303244 -0.2166879
-0.15537949 -0.09741658 -0.05683057 -0.1475544 -0.14702117 -0.18602195 -0.21236153 -0.110064045
-0.03327485 -0.21318297 -0.05018012 -0.028036855 -0.064634934 -0.0781013 -0.08582737 -0.07848448
-0.07231271 -0.21397111 -0.11607029 -0.3727243 -0.3384486 0.019922666 -0.34345603 -0.1527452
-0.19630584 -0.2055785 -0.044158395 -0.15984216 -0.184694 -0.071938835 0.06537425 -0.19261773
-0.033182625 -0.16555525 -0.12539516 -0.082184836 -0.18910466 -0.20835865 -0.14093389 -0.07409983
-0.037040472 -0.13085872 -0.10126692 -0.24438056 -0.2396657 -0.13560183 -0.15195884 -0.1083034
0.09912919 -0.19815366 -0.054762322 -0.061655845 -0.19960594 0.08512672 -0.06563988 -0.26936385

fc.bias f4 [20]
00000000: 4c46 3a3e 9bc3 febd 269a 93bd 7d29 8ebd
00000010: be6c 27be d54e 12be d22e 3ebe a13c ddbd
00000020: 4b5c 0abe 84d5 86bc b0c9 0ebe cc42 b5bc
00000030: 78bb 4fbd 9359 92bd a7ff 2fbe 3a98 90bd
00000040: a2f7 21bc 00b5 eebc 97b8 10be d2dc c3bd
0.18190879 -0.124396525 -0.07207136 -0.06941507 -0.16350076 -0.14287885 -0.18572548 -0.1080258
-0.1351177 -0.016459234 -0.13944125 -0.022126578 -0.050715894 -0.07145991 -0.17187367 -0.07060285
-0.0098857 -0.029139042 -0.14132915 -0.095636025
