models/deep_learning/lstm_model.pth (torch, 483497 bytes, 6 tensors)

lstm.weight_ih_l0 f4 [512, 100]
0	0xbdbd9fff	-0.092590325
1	0xbc104375	-0.0088051455
2	0x3db11a9f	0.08647656
3	0x3c4413ad	0.011967582
4	0xbd117d43	-0.03551985
5	0xbe5f2a01	-0.21793367
6	0x3de8fa84	0.11375907
7	0x3e0462bc	0.12928289
8	0xbd935c11	-0.07195295
9	0x3dbf6c39	0.09346814
10	0x3d216f60	0.039412856
11	0x3cd4e9e1	0.025990428
12	0x3d434b1f	0.047679063
13	0x3dcacf81	0.099028595
14	0x3d0022e9	0.031283293
15	0xbc3b2475	-0.011422266
16	0xbda17b98	-0.07884902
17	0xbd0fd8f0	-0.035118997
18	0xbcaa6679	-0.020800816
19	0x3ce4b5be	0.027918693
20	0x3e84204e	0.25805897
21	0xbc5ecb99	-0.013598346
22	0xbcd3e591	-0.025866302
23	0x3d99aa1f	0.07503151
24	0x3ed1b58d	0.40958825
25	0x3ceb6459	0.028734373
26	0xbda36089	-0.07977397
27	0xbd2f90f8	-0.042862862
28	0xba18d6c0	-0.000583034
29	0xbd062f31	-0.03275985
30	0x3d1ef2cc	0.038805768
31	0xbc829a2c	-0.015942656
32	0xbdf13cd5	-0.11779181
33	0x3d2f47d9	0.04279313
34	0x3d12684b	0.035743993
35	0xbcbce2f7	-0.023057444
36	0x3de53162	0.1119106
37	0x3c786f70	0.0151632875
38	0x3da4aebb	0.0804114
39	0x3da8fb05	0.08251003
40	0xbc7006dd	-0.014650074
41	0x3cbc8933	0.02301464
42	0x3e0de6a2	0.1385751
43	0x3ccd3060	0.025047481
44	0x3e1c2bfc	0.15251154
45	0x3dbddb6b	0.09270366
46	0x3d6aabed	0.057292867
47	0x3d768793	0.060187887
48	0x3dc59911	0.09648336
49	0xbcc46491	-0.023973735
50	0xbe1e59da	-0.15463963
51	0x3b8af95f	0.004241153
52	0x3dd007c5	0.10157732
53	0x3cacf4de	0.021112856
54	0x3b29ecaa	0.0025928416
55	0xbd4ad16c	-0.049516127
56	0x3cd000b9	0.02539097
57	0x3dd71b94	0.10503307
58	0x3d5d3fd5	0.054015953
59	0x3d17441b	0.036930185
60	0x3d99e981	0.075152405
61	0x3dfb199a	0.122607425
62	0x3d8c919a	0.06863709
63	0x3d5d58dc	0.05403982
64	0x3df67780	0.120345116
65	0xbc902782	-0.017596964
66	0xbdfec1e4	-0.124393255
67	0x3d06d8ac	0.03292148
68	0xbde03b6e	-0.10948835
69	0xbc8a926b	-0.01691552
70	0x3a94272f	0.0011303182
71	0xbeced810	-0.40399218
72	0xbdc06d3b	-0.09395834
73	0x3e209db7	0.15685163
74	0xbd1fd3b3	-0.03902025
75	0xbdb8d1c5	-0.09024385
76	0x3d8197ca	0.063277796
77	0x3dfa4756	0.122206375
78	0x3bc48192	0.0059968913
79	0x3e069c66	0.13145599
80	0xbe051b57	-0.1299871
81	0x3dc1efcf	0.09469568
82	0x3d8fd90f	0.070238225
83	0xbaa77870	-0.0012776982
84	0x3dd6e7a8	0.10493404
85	0x3e4314dc	0.19050926
86	0xbd684965	-0.05671062
87	0xbde08b3c	-0.10964057
88	0xbcd3a03a	-0.025833238
89	0x3e03dfb4	0.12878305
90	0xbd92437f	-0.0714178
91	0x3d015ba6	0.031581543
92	0x3e263d97	0.16234432
93	0x3a93bd5d	0.0011271645
94	0x3d76180c	0.060081527
95	0xbe3f1ba7	-0.18662892
96	0xbd907049	-0.07052667
97	0x3e210119	0.15723075
98	0x3cba9223	0.022774762
99	0xbdc2efbe	-0.095183834
100	0x3e4ca085	0.19983108
101	0x3ce0cf4e	0.0274426
102	0xbd9f9daa	-0.07793744
103	0x3e59ac7d	0.21257205
104	0xbd1b8461	-0.037968043
105	0xbe0eb748	-0.13937104
106	0x3e4c6fb4	0.19964486
107	0xbc8ed379	-0.017434822
108	0xbe774a01	-0.24149324
109	0x3e2a8da7	0.16655599
110	0xbe8272e8	-0.25478292
111	0xbe1faea8	-0.1559397
112	0x3dcc7871	0.0998391
113	0xbc8913f2	-0.016733143
114	0x3db1d424	0.08683041
115	0x3d10bf6a	0.035338797
116	0x3e1ac374	0.15113622
117	0x3d99cc94	0.07509723
118	0x3d5dfb14	0.054194525
119	0x3dfcc9b1	0.12343157
120	0xbdb7a373	-0.08966722
121	0xbc05f9ea	-0.00817726
122	0xbd5b4f07	-0.053542163
123	0x3e27c5eb	0.16384093
124	0x3db6497d	0.089007355
125	0x3e13831b	0.14405482
126	0x3d44bd7c	0.04803227
127	0x3b10582b	0.0022025208
128	0xbe094644	-0.1340571
129	0x3de2e6fc	0.11079213
130	0xbdfb5151	-0.12271369
131	0xbc932e42	-0.017966393
132	0xbe371331	-0.17878415
133	0xbcc894f5	-0.02448509
134	0x3dabc09d	0.083863474
135	0xbe20aa7b	-0.15690033
136	0xbe1849b3	-0.14871864
137	0x3d95424d	0.072880365
138	0xbca9c5d5	-0.020724216
139	0xbdeed3b7	-0.11661475
140	0x3da21c97	0.07915609
141	0x3e259f31	0.16174008
142	0x3df57148	0.11984497
143	0xbdb532e0	-0.08847594
144	0x3d23dc62	0.040005095
145	0x3e599336	0.21247563
146	0x3e501261	0.20319511
147	0x3da7c5eb	0.08192047
148	0x3c96b821	0.018398346
149	0x3e02bd68	0.12767565
150	0x3cb6167d	0.02222752
151	0xbe560145	-0.20898922
152	0x3d8de7a4	0.069289476
153	0x3ce3e4f3	0.027819132
154	0x3d5d24f0	0.053990304
155	0xbd80f560	-0.062968016
156	0x3d7d2b01	0.06180859
157	0xbd475291	-0.048662726
158	0x3c212187	0.009834654
159	0x3deb50b6	0.11490004
160	0x3cc5e77d	0.024158234
161	0x3e0d891c	0.13821834
162	0x3c815c79	0.015791165
163	0x3d8d4360	0.068976164
164	0x3bcecf2d	0.0063113184
165	0xbc7c18c3	-0.015386763
166	0xbe0470e9	-0.12933697
167	0xbdd208da	-0.102555946
168	0x3cb4cf4c	0.022071503
169	0xbd627cf8	-0.05529496
170	0xbe176560	-0.14784765
171	0xbdc7be13	-0.09753051
172	0x3e00f697	0.12594067
173	0x3dc7e7b7	0.09760993
174	0x3e1211d7	0.14264618
175	0x3de34c9f	0.11098599
176	0x3d18c88e	0.03730064
177	0xbe192861	-0.1495681
178	0x3dc35c66	0.09539108
179	0x3de26ad0	0.11055529
180	0x3b471da3	0.0030382655
181	0x3e087e92	0.13329533
182	0xbd4808b5	-0.04883643
183	0xbde3c561	-0.111216314
184	0x3dd82ab4	0.1055502
185	0x3e63572f	0.22201227
186	0xbcbae8ee	-0.022816148
187	0x3b46c12d	0.0030327544
188	0x3ddec565	0.10877494
189	0x3d777be7	0.060420897
190	0xbdf022c6	-0.117253825
191	0xbbf6820a	-0.007522826
192	0xbd3eb581	-0.046559814
193	0xbb9daed8	-0.0048121028
194	0xbc9b5208	-0.018960014
195	0xbd3c5062	-0.045975097
196	0xbcfa8e39	-0.030585395
197	0x3da23204	0.07919696
198	0xbca9859d	-0.020693595
199	0xbe5f38ad	-0.21798964
200	0xbd6f534a	-0.05842904
201	0x3e13c88e	0.14431974
202	0x3cf2a49d	0.02961951
203	0x3e5abc38	0.21360862
204	0xbdac9b0c	-0.0842801
205	0x3e3eeb57	0.18644463
206	0xbc03fe1b	-0.008056189
207	0xbe7cd0e8	-0.24689066
208	0x3e050fa3	0.12994246
209	0x3e6ce4e2	0.23134187
210	0xbe8d9d5f	-0.27659127
211	0x3d915565	0.07096366
212	0x3e9f4216	0.31105107
213	0x3ea266be	0.3171901
214	0xbe1b4012	-0.1516116
215	0xbdc5d631	-0.096599944
216	0xbd2abe82	-0.04168559
217	0xbc78a566	-0.015176153
218	0xbe5ecce2	-0.21757844
219	0xbe4c5d1a	-0.1995739
220	0xbcab54a0	-0.020914376
221	0xbe5ae9dc	-0.21378273
222	0x3d726dda	0.059186794
223	0xbd83e48f	-0.064400785
224	0xbd1c1613	-0.03810699
225	0x3de5d070	0.11221397
226	0x3b803166	0.0039121388
227	0xbda133b2	-0.07871188
228	0xbc971a98	-0.018445298
229	0x3cbb1717	0.022838159
230	0xbe51c341	-0.2048464
231	0xbdca3315	-0.098730244
232	0xbe8b1c68	-0.2717011
233	0xbe0b3d4a	-0.13597599
234	0xbe143187	-0.14472018
235	0x3e141c64	0.14463955
236	0xbd0a2511	-0.033726756
237	0xbc8387e2	-0.016056005
238	0xbd3155f8	-0.043294877
239	0x3e3f21c0	0.18665218
240	0xbe13f415	-0.14448579
241	0x3cff1c80	0.03114152
242	0x3e6e6f09	0.23284544
243	0x3cdbb610	0.026820213
244	0xbe8e02ec	-0.27736604
245	0xbe6f4784	-0.23367125
246	0x3e8b7b49	0.27242497
247	0x3e9482e4	0.29006112
248	0xbe7681c6	-0.24072942
249	0xbdf1d91a	-0.11808987
250	0x3e5b0c4d	0.21391411
251	0x3e9e1e5f	0.30882546
252	0xbe3406be	-0.17580697
253	0x3c963602	0.0183363
254	0x3e1cc147	0.15308104
255	0x3ca860a0	0.020553887

lstm.weight_hh_l0 f4 [512, 128]
0	0xbcf72b4b	-0.03017201
1	0xbdb7f3ac	-0.089820236
2	0xbe18463c	-0.14870542
3	0xbcb9f484	-0.022699602
4	0x3cb564e9	0.022142844
5	0x3d9372c4	0.07199624
6	0x3ddafbde	0.10692571
7	0x3da56cef	0.08077418
8	0xbceea30b	-0.02913048
9	0x3dac7742	0.08421184
10	0x3cf3f0ca	0.029777903
11	0xbe106911	-0.1410258
12	0xbdd3e503	-0.10346415
13	0xbddbbfee	-0.10729967
14	0xbdaa49fc	-0.08314893
15	0x3c9b4dc2	0.018957976
16	0x3dbba5d8	0.091624916
17	0x3d996805	0.07490543
18	0x3c05be0f	0.008162989
19	0x3e83c6dd	0.25737658
20	0x3d21d22f	0.039507087
21	0x3e2be165	0.167852
22	0xbcda73ae	-0.026666488
23	0x3dc214fc	0.09476659
24	0xbda6bdf1	-0.08141697
25	0x3e450743	0.19241051
26	0xbcb2c29a	-0.021821309
27	0xbda78440	-0.081795216
28	0xbc52bb64	-0.01286206
29	0xbde4ee4b	-0.11178263
30	0xbdf35720	-0.11881852
31	0xbd034393	-0.032046866
32	0xbdcbdffd	-0.09954832
33	0xbe1c4653	-0.15261202
34	0x3dac5648	0.08414894
35	0xbd50da33	-0.05098934
36	0x3d7bd6e3	0.06148423
37	0xbceddd2b	-0.029036125
38	0x3e6c13fb	0.23054497
39	0xbcc0529f	-0.023476897
40	0xbd542455	-0.05179246
41	0x3c994ab8	0.018712386
42	0x3db5fa6b	0.08885654
43	0xbdad7f6b	-0.08471569
44	0xbd8898fc	-0.066698045
45	0x3e8d269f	0.27568528
46	0x3d8f48bb	0.06996294
47	0xbd0a9889	-0.033836875
48	0xbc8aff13	-0.016967332
49	0xbda911e4	-0.082553655
50	0xbc4dc24f	-0.012558534
51	0x3d939b66	0.07207374
52	0x3da4bbd5	0.080436386
53	0x3e0a3af7	0.13499056
54	0xbcdd890b	-0.027042886
55	0x3df89d71	0.121394046
56	0xbd09887c	-0.033577427
57	0x3daa8091	0.08325303
58	0xbd8ca4d8	-0.06867379
59	0x3dcda542	0.10041286
60	0x3d1509b4	0.036386207
61	0x3cce6897	0.025196357
62	0xbdaf045f	-0.085457556
63	0xbdaebb59	-0.085318275
64	0xbd8f9e1f	-0.07012581
65	0xbda48bae	-0.08034454
66	0x3da80b2d	0.082052566
67	0xbe049119	-0.12945975
68	0x3d713795	0.058890898
69	0x3c8ff5d2	0.017573271
70	0xbe53959d	-0.20662542
71	0x3da5da6c	0.08098301
72	0xbc778319	-0.01510694
73	0xbe0bc1a4	-0.13648087
74	0x3dacc982	0.08436872
75	0x3de3e040	0.11126757
76	0x3cc7fa28	0.024411276
77	0x3dafd76b	0.085860096
78	0x3d43d703	0.047812473
79	0xbdb8104b	-0.08987483
80	0x3d9980a4	0.074952394
81	0xbde64b85	-0.11244873
82	0x3d9902ed	0.07471261
83	0x3d76cb0b	0.06025223
84	0x3caa68ff	0.02080202
85	0xbd9c77ec	-0.07640061
86	0xbd4a1dcc	-0.049344823
87	0x3d9ccf7e	0.076567635
88	0xbcc81e48	-0.024428502
89	0x3d6a4423	0.057193886
90	0x3e0c704e	0.13714716
91	0x3ae2c4a4	0.0017301035
92	0x3c8c2293	0.01710633
93	0x3d5197b7	0.051170077
94	0x3d724885	0.05915119
95	0x3d752762	0.05985201
96	0xbcd5757e	-0.026057001
97	0x3d8d17c3	0.06889298
98	0xbddf32c3	-0.10898354
99	0xbc07bbb9	-0.008284503
100	0xbc883c35	-0.016630271
101	0x3d8c757b	0.06858345
102	0x3d178cf2	0.03699965
103	0x3e877e54	0.26463568
104	0x3d25f45b	0.04051624
105	0x3bb7c48d	0.0056081475
106	0xbe8ab3de	-0.27090353
107	0xbc03d93f	-0.008047401
108	0x3d705a05	0.0586796
109	0xbca5d671	-0.020243855
110	0x3db0b364	0.08627966
111	0xbd6fd077	-0.058548417
112	0xbdcc245e	-0.09967874
113	0x3db2ca4b	0.087299906
114	0x3d873f54	0.06603876
115	0xbda66a74	-0.08125773
116	0x3d869e1a	0.06573124
117	0x3e59735b	0.21235411
118	0xbc252797	-0.01008024
119	0x3dc6e9f3	0.09712591
120	0xbe32df15	-0.17467912
121	0xbe1d01e5	-0.15332754
122	0xbdb4167b	-0.0879335
123	0xbdfb27a3	-0.122634195
124	0x3d7094ef	0.058735784
125	0xbca85edd	-0.020553047
126	0xbe2f705d	-0.17132707
127	0x3e2d008a	0.16894737
128	0x3ea8a9ae	0.32941955
129	0x3c06c447	0.008225507
130	0x3dd25305	0.10269741
131	0xbe3b06eb	-0.18264358
132	0x3dd395e9	0.103313275
133	0xbdfbd9f0	-0.12297428
134	0x3d3cd4f8	0.04610154
135	0x3de7ffac	0.113280624
136	0x3dd66512	0.104684964
137	0x3dbce8f8	0.09224123
138	0xbddab48d	-0.106789686
139	0xbdeef865	-0.11668471
140	0xbcf90091	-0.030395778
141	0x3c3c9805	0.011510854
142	0x3d0026e5	0.031287093
143	0xbd9e9fd1	-0.07745326
144	0x3df15546	0.11783843
145	0xbd8a0d23	-0.06740787
146	0xbb968dbd	-0.0045945332
147	0x3d836100	0.06414986
148	0x3e3489a2	0.17630628
149	0x3dc89f7d	0.09796045
150	0xbd0a35ca	-0.033742703
151	0xbdf3d84c	-0.1190649
152	0x3e1e4da7	0.1545931
153	0x3df34d93	0.118800305
154	0x3def9f6b	0.117003284
155	0xbdcf88d1	-0.101335175
156	0x3d1ff774	0.03905435
157	0xbe004160	-0.12524939
158	0xbe066cc7	-0.13127433
159	0x3ccc3d4f	0.024931578
160	0xbe18a0d2	-0.14905098
161	0xbca1b6b1	-0.019740434
162	0x3ca5c9a7	0.020237757
163	0xbe23584d	-0.15951653
164	0x3e0352c4	0.12824541
165	0xbd109ed2	-0.035307713
166	0xbc4e5603	-0.012593749
167	0x3cc6fdcd	0.024290944
168	0xbdca24ea	-0.09870322
169	0xbe60606f	-0.21911786
170	0x3d77b7e7	0.060478117
171	0x3d13b990	0.036065638
172	0xbcc7d816	-0.02439503
173	0x3e0d642f	0.13807748
174	0x3d7db9f0	0.061944902
175	0xbe07298e	-0.13199446
176	0x3df6d079	0.12051482
177	0xbdd51307	-0.1040402
178	0xbdae97c3	-0.0852504
179	0xbd931f04	-0.0718365
180	0xbd439d1c	-0.047757253
181	0x3d6f9239	0.05848906
182	0xbcba2850	-0.0227243
183	0xbca3b288	-0.019982591
184	0xbd4fd0ea	-0.050736345
185	0xbd953e5b	-0.07287284
186	0xbe5ab13c	-0.21356672
187	0x3e370946	0.17874631
188	0x3d99f9b3	0.075183295
189	0x3e86ecbd	0.26352492
190	0x3c93fd89	0.01806523
191	0xbcb423a3	-0.02198965
192	0x3d8ace02	0.06777574
193	0xbcbf449b	-0.023348143
194	0x3e0b2a9a	0.1359047
195	0x3e16517c	0.14679521
196	0xbc64b873	-0.013959992
197	0xbe082750	-0.13296247
198	0x3da03a3d	0.07823608
199	0x3dc6d012	0.09707655
200	0x3ac47612	0.0014988801
201	0xbd4a9d01	-0.049466137
202	0xbce8a0cc	-0.028396986
203	0x3d9ee5c8	0.07758671
204	0xbe12ef93	-0.14349203
205	0xbd493862	-0.049126036
206	0x3e136a3c	0.14395994
207	0xbb8c8cf0	-0.004289262
208	0x3d2a5739	0.04158709
209	0xbd45982c	-0.048240826
210	0x3e0a1efb	0.1348838
211	0x3ca39451	0.019968184
212	0x3e1eee52	0.155206
213	0x3b13d039	0.002255453
214	0xbded1a2a	-0.11577256
215	0xbd0b91d7	-0.03407463
216	0x3db67d6b	0.0891064
217	0x3d90e882	0.07075597
218	0x3dbc3b60	0.091910124
219	0xbdace4c5	-0.08442072
220	0xbdafe966	-0.08589439
221	0xbdb73dab	-0.08947309
222	0xbd766ac3	-0.06016041
223	0xbc710efa	-0.014713043
224	0xbcb94138	-0.022614107
225	0xbd46c18b	-0.04852442
226	0xbd94ecf9	-0.072717614
227	0xbdd845da	-0.10560198
228	0x3d39c8bc	0.04535745
229	0x3c61edc3	0.013789597
230	0xbc20b85d	-0.009809581
231	0xbde036fd	-0.10947988
232	0xbdca0d16	-0.09865777
233	0x3cdd853d	0.027041072
234	0xbd99fdff	-0.07519149
235	0xbcefe871	-0.029285641
236	0xbd7f1a06	-0.062280677
237	0x3dde60fb	0.10858341
238	0x3e39633c	0.18104261
239	0xbe100169	-0.14063038
240	0xbb34f667	-0.0027612688
241	0xbd9127c1	-0.070876606
242	0xbe1229ef	-0.14273809
243	0x3e062374	0.13099462
244	0xbb7e03ac	-0.0038759513
245	0x3cb38767	0.02191515
246	0x3e0df440	0.13862705
247	0x3d579b39	0.052638266
248	0x3df3cbd7	0.11904114
249	0xbe0574f5	-0.13032897
250	0x3cc9a7f5	0.024616221
251	0x3d843443	0.06455281
252	0x3e24396d	0.16037531
253	0xbda00dae	-0.07815109
254	0xbd9910ef	-0.07473933
255	0x3ded8e10	0.11599362

lstm.bias_ih_l0 f4 [512]
0	0x3cba8f65	0.022773454
1	0x3dc139e1	0.09434868
2	0xbe13ce05	-0.14434059
3	0xbd850a5b	-0.06496116
4	0xbc9c4967	-0.01907797
5	0xbd8bef23	-0.06832721
6	0x3d0ce9f2	0.034402795
7	0xbd9ec644	-0.0775266
8	0xbdd0dec8	-0.10198742
9	0x3ca87e2d	0.020567978
10	0x3c7abcfd	0.015303847
11	0xbc575613	-0.01314308
12	0xbd3d9d40	-0.046292543
13	0x3c4c4ecc	0.0124699585
14	0x3d811064	0.063019544
15	0xbd317f4a	-0.043334283
16	0x3ddd9798	0.1081993
17	0xbd3aecd9	-0.04563603
18	0xbc99289c	-0.018696122
19	0xbd7cd90a	-0.061730422
20	0x3b419d3d	0.0029543184
21	0xbb9bfe23	-0.00476052
22	0xbcb39c6c	-0.021925174
23	0xbdc70241	-0.09717227
24	0xbe5e654e	-0.21718332
25	0x3c131dd1	0.008979277
26	0x3d3968a2	0.0452658
27	0xbd489136	-0.04896661
28	0xbd898b4e	-0.067160234
29	0x3cfb5f83	0.030685192
30	0xbab96074	-0.0014143125
31	0x3c9a70fd	0.018852705
32	0x3bf191ba	0.0073721083
33	0xbe01e3ad	-0.12684508
34	0x3d968169	0.07348902
35	0x3d3c292a	0.045937695
36	0x3d4f17a8	0.05055967
37	0x3c929540	0.017893434
38	0x3e29ba4e	0.16574976
39	0xbd049220	-0.03236592
40	0xbdb2b78a	-0.087264135
41	0xbe1094b7	-0.1411923
42	0xbbbc11fc	-0.0057394486
43	0xbd630a24	-0.055429593
44	0xbd80ccf8	-0.06289095
45	0xbe871361	-0.26381972
46	0x3c081cc0	0.008307636
47	0xbdd22e73	-0.10262766
48	0xbd2432da	-0.04008756
49	0x3d356e3c	0.04429458
50	0x3ce51112	0.027962241
51	0x3c8b041d	0.016969735
52	0xbe1d1c39	-0.15342797
53	0x3c83a84c	0.016071461
54	0x3cf08c4a	0.02936377
55	0x3d052b83	0.0325122
56	0xbd874fea	-0.06607039
57	0xbcee7fef	-0.029113738
58	0xbd209cc0	-0.03921199
59	0x3c9c8556	0.019106548
60	0xbccba988	-0.024861112
61	0xbdb39a46	-0.0876966
62	0x3d0f2cfc	0.03495501
63	0xbe10baed	-0.14133807
64	0x3e433b8a	0.19065681
65	0x3d6c13f5	0.05763622
66	0x3c9f0a6c	0.01941415
67	0xbe60d2d2	-0.21955422
68	0xbda4c464	-0.08045271
69	0xbdd8bc0b	-0.10582741
70	0xbdf3889e	-0.11891292
71	0x3d0cb30f	0.03435045
72	0x3dc36371	0.09540451
73	0x3d75a024	0.059967175
74	0x3d9a8078	0.07544035
75	0xbe0f046c	-0.1396653
76	0xbdab9b0d	-0.08379183
77	0xbd4fabae	-0.050700836
78	0x3d08ff64	0.033446684
79	0x3e06c23b	0.1316003
80	0x3d8f79da	0.07005663
81	0xbda741ad	-0.081668235
82	0xbccbb92a	-0.024868567
83	0x3dba6e94	0.09103122
84	0xbd10f990	-0.03539425
85	0xbda336e6	-0.079694554
86	0x3dcdcfe1	0.100494154
87	0xbd95ce13	-0.07314696
88	0xbe01b074	-0.12664968
89	0xbc2392ff	-0.009983777
90	0xbe084af0	-0.13309836
91	0xbe3423d2	-0.1759179
92	0x3d5528a7	0.052040722
93	0x3d056c95	0.032574255
94	0x3b54ad22	0.0032451828
95	0xbe3a90fc	-0.1821937
96	0xbc799f12	-0.015235679
97	0x3d2a0f0a	0.04151825
98	0xbd76d5ee	-0.060262613
99	0xbd07707a	-0.03306625
100	0x3d411f9f	0.047149297
101	0x3d9d0144	0.07666257
102	0xbdbf76f3	-0.0934886
103	0x3daf20a1	0.08551145
104	0x3d27c693	0.04096086
105	0xbb20b7e6	-0.0024523675
106	0xbdf3ed7f	-0.11910533
107	0x3e23f1ea	0.16010252
108	0xbd42b2c9	-0.047533784
109	0xbd5927bc	-0.05301641
110	0x3da8bfc1	0.08239699
111	0xbd84fb08	-0.06493193
112	0xbda36192	-0.079775944
113	0xbe14f44e	-0.1454632
114	0x3e0684a7	0.1313654
115	0xbe330a96	-0.17484507
116	0xbca7948f	-0.02045658
117	0xbc038aa2	-0.008028658
118	0xbe4854f8	-0.19563663
119	0xbdcaf39c	-0.09909746
120	0xbd23d2e9	-0.03999606
121	0xbe063a51	-0.13108183
122	0x3d33b9e9	0.04387847
123	0x3d9bc92b	0.07606729
124	0xbdf3eaa4	-0.119099885
125	0x3d30c014	0.04315193
126	0xbe2ab160	-0.16669226
127	0x3cb73767	0.022365285
128	0xbb2203af	-0.0024721434
129	0x3d4c5051	0.049881283
130	0x3ddfab70	0.10921371
131	0x3d5b3574	0.053517774
132	0x3e44b248	0.19208634
133	0xbb79684a	-0.0038056546
134	0x3d9a7e52	0.07543625
135	0x3dc18609	0.09449393
136	0xbd08e7ee	-0.03342431
137	0x3c43ccde	0.0119507
138	0x3dcc54f0	0.09977138
139	0x3d64204f	0.055694874
140	0xbdd86a16	-0.10567109
141	0x3db15cb3	0.08660259
142	0xbd6357fe	-0.055503838
143	0xbbc401ff	-0.0059816833
144	0x3db79c98	0.08965415
145	0x3af54512	0.0018712601
146	0x3d9823d2	0.07428707
147	0x3df474f6	0.11936371
148	0xbd157f56	-0.03649839
149	0x3d03ebf2	0.032207437
150	0x3c5b0bf3	0.013369548
151	0xbbf1b3dc	-0.0073761772
152	0x3c79c7a7	0.015245355
153	0x3d8b1963	0.067919515
154	0x3e2d62f9	0.16932286
155	0x3d96eac2	0.07368995
156	0x3cb3ab1d	0.02193218
157	0x3d7bc0bc	0.061463103
158	0x3d63dc6e	0.05563014
159	0x3c0a3f78	0.008437984
160	0x3d032535	0.032017905
161	0x3e264bbb	0.16239826
162	0x3e0382b9	0.12842835
163	0x3daf555d	0.08561204
164	0xbc45c2ba	-0.012070352
165	0x3defbcce	0.117059335
166	0x3ce24cc1	0.02762449
167	0x3e1a8007	0.15087901
168	0x3dab0658	0.08350819
169	0xbd44cbef	-0.04804605
170	0x3e1c945c	0.1529097
171	0xbcae725c	-0.021294765
172	0x3e13b7f1	0.14425637
173	0x3e63a7ab	0.22231929
174	0x3dc07686	0.093976066
175	0xbd4cded2	-0.050017186
176	0x3e598a97	0.21244274
177	0x3afd1143	0.0019307513
178	0x3d22067c	0.039556965
179	0x3d5dc402	0.054142006
180	0x3e1d7c81	0.15379526
181	0x3d22f706	0.03978636
182	0x3d4fab71	0.05070061
183	0x3e0e459e	0.13893744
184	0xbcd9de99	-0.0265954
185	0x3d0e1d01	0.03469563
186	0xbd25b140	-0.040452242
187	0x3da865b7	0.082225256
188	0x3d97cfcd	0.07412682
189	0x3d85bc79	0.06530089
190	0x3d38c114	0.04510601
191	0xbd3821a6	-0.044953965
192	0x3d718c02	0.058971412
193	0x3e4bcffa	0.19903556
194	0x3e325179	0.17413892
195	0x3c8d94b8	0.017282829
196	0x3cf41cc9	0.029798882
197	0x3e6ef6e3	0.23336367
198	0x3d1f2f26	0.038863324
199	0x3cddac26	0.027059626
200	0x3e242354	0.16029102
201	0x3e414f85	0.1887799
202	0xbca487d0	-0.020084292
203	0x3d8ccc2d	0.06874881
204	0x3cdbe08c	0.02684047
205	0x3e17ac1d	0.1481175
206	0xbc90ee43	-0.017691737
207	0x3d57770a	0.05260376
208	0x3df822e3	0.12116029
209	0x3d362f71	0.044478837
210	0x3d7f1d3b	0.062283736
211	0x3d8464ea	0.0646456
212	0x3c667a9c	0.014067318
213	0x3d6760e1	0.056488875
214	0x3dc8174a	0.09770067
215	0x3d3cff7e	0.046142094
216	0xbe02013d	-0.12695785
217	0x3dc0a2e6	0.094060704
218	0x3e3aea89	0.1825353
219	0x3d70d99c	0.05880128
220	0x3cc4e605	0.024035463
221	0x3d8f3956	0.06993358
222	0xbc96a834	-0.018390752
223	0xbd931cce	-0.071832284
224	0xbd0bb187	-0.03410485
225	0x3c4d1614	0.012517471
226	0x3d4afdc4	0.049558416
227	0x3e2674c2	0.16255477
228	0x3e49070d	0.19631596
229	0xbc0d75d7	-0.008634052
230	0x3ce3511f	0.027748642
231	0x3dc6a60e	0.09699641
232	0x3cd91526	0.026499342
233	0x3c9a5bdc	0.01884263
234	0xbd916c21	-0.07100702
235	0x3c367656	0.011136612
236	0x3d45976c	0.04824011
237	0xbd829aba	-0.06377168
238	0x3e0f6635	0.14003833
239	0xbcfcd26d	-0.030862058
240	0x3d8d9fcc	0.069152445
241	0x3c2ed940	0.010671914
242	0x3dbc1dac	0.09185347
243	0x3dade805	0.0849152
244	0xbd909a0e	-0.070606336
245	0xbd1550fc	-0.036454186
246	0xbdef3bd3	-0.116813324
247	0x3de16604	0.11005786
248	0xbcbe1bd6	-0.023206633
249	0xbb19d750	-0.0023474284
250	0x3dd9b3c6	0.10629992
251	0x3da3e262	0.080021635
252	0xbdc00c3f	-0.09377336
253	0x3d8a71a6	0.06759958
254	0x3e5aa1d5	0.21350797
255	0xbc9aac67	-0.018881036

lstm.bias_hh_l0 f4 [512]
0	0xbcf98902	-0.030460838
1	0x3dd49b45	0.10381178
2	0xbd648a18	-0.05579576
3	0x3d3e22cf	0.046419915
4	0xbd6b83f3	-0.057498883
5	0x3d5e72a1	0.054308537
6	0x3ce5a06e	0.0280306
7	0xbd4fc144	-0.05072142
8	0x3c85ced4	0.016333975
9	0xbde6055f	-0.11231493
10	0x3b62d2b2	0.0034610447
11	0xbd72a87a	-0.059242703
12	0x3c6a7f6c	0.014312606
13	0xbd0df4bb	-0.03465722
14	0x3d974f5f	0.07388186
15	0x3cff3897	0.031154914
16	0x3d9633d7	0.073341064
17	0xbc04939c	-0.008091833
18	0xbde4abd8	-0.11165589
19	0xbc2fe1f8	-0.0107350275
20	0xbe100615	-0.1406482
21	0x3d9e0d14	0.07717338
22	0xbd309df2	-0.04311938
23	0xbdbcff9f	-0.09228443
24	0xbe2bc64d	-0.16774864
25	0xbdb3be55	-0.08776537
26	0x3da61f23	0.081114076
27	0xbda0bffe	-0.078491196
28	0xbc16141f	-0.009160071
29	0x3d59a63b	0.053137045
30	0x3b0ade8f	0.0021189784
31	0x3d2f51ad	0.0428025
32	0x3da09186	0.078402564
33	0xbcdd6ca8	-0.02702935
34	0xbccec63e	-0.025241014
35	0xbdbbfff9	-0.09179682
36	0x3cfe97b1	0.031078191
37	0x3d019b65	0.031642336
38	0x3dc3ea0e	0.09566127
39	0xbe0166d1	-0.12636878
40	0xbc5e6073	-0.0135728
41	0xbdde10b3	-0.10843029
42	0xbc05d556	-0.008168539
43	0x3bda7cf2	0.0066677267
44	0xbb489b64	-0.0030610198
45	0xbe2086db	-0.15676443
46	0xbde8f335	-0.11374513
47	0xbdd4fff6	-0.10400383
48	0xbe3f6698	-0.1869148
49	0xbd9618cc	-0.073289484
50	0xbdadeef7	-0.084928446
51	0x3d2fb362	0.042895682
52	0xbd0131a5	-0.031541485
53	0xbd95e83e	-0.07319687
54	0xbccf9d24	-0.025343485
55	0x3defeb2b	0.117147766
56	0x3c40581a	0.011739755
57	0x3b537427	0.0032265277
58	0xbd6472de	-0.05577361
59	0xbc3739d6	-0.011183223
60	0xbc691337	-0.014225773
61	0xbdf52bee	-0.119712695
62	0x3d28651e	0.041112058
63	0xbdc2640e	-0.0949174
64	0x3e19ebf7	0.1503142
65	0x3d805b76	0.06267445
66	0x3da015bd	0.07816646
67	0xbdfd900b	-0.1238099
68	0x3d297719	0.041373346
69	0xbd87e145	-0.06634764
70	0xbe065066	-0.13116607
71	0x3b040b7f	0.0020148454
72	0x3d3728eb	0.044716757
73	0x3c8475a3	0.016169375
74	0x3ca15012	0.0196915
75	0x3c92c590	0.01791647
76	0xbdddbffa	-0.10827632
77	0x3cbf7da9	0.02337535
78	0xbdc87040	-0.09787035
79	0x3dbc2b65	0.09187964
80	0x3d9e430c	0.07727632
81	0xbd291823	-0.041282784
82	0xbcc36c65	-0.023855397
83	0x3e732856	0.23745856
84	0x3d3a54a3	0.045490872
85	0xbd51e9c8	-0.05124834
86	0xbd4d88b1	-0.050179187
87	0x3c65658f	0.014001264
88	0xbdc0f739	-0.09422154
89	0xbceabb45	-0.02865375
90	0xbd628155	-0.055299122
91	0xbd40953e	-0.04701733
92	0x3e22537b	0.15852158
93	0xbcd9b135	-0.026573757
94	0xbc4c8632	-0.0124831665
95	0xbd53d6be	-0.051718466
96	0xbe093f16	-0.13402972
97	0x3d5943b7	0.053043094
98	0x3d858208	0.06518942
99	0xbe1770e3	-0.14789157
100	0x3db830ad	0.08993659
101	0xbc0c34b0	-0.008557484
102	0xbdacc1aa	-0.08435376
103	0x3e00420e	0.12525198
104	0xbcd90458	-0.02649133
105	0xbd4cc166	-0.049989127
106	0xbd1e9087	-0.03871205
107	0x3d6291a3	0.05531467
108	0xbe024457	-0.12721382
109	0xbdaef31d	-0.08542464
110	0x3d92e269	0.071720906
111	0x3d238cf4	0.039929345
112	0x3dc562b1	0.096379645
113	0xbe2f878d	-0.17141552
114	0x3d82c1f8	0.06384653
115	0xbe39aa72	-0.18131426
116	0x3d554229	0.05206505
117	0xbc48edad	-0.012263698
118	0xbd97a349	-0.07404191
119	0x3cfb1782	0.030650858
120	0xbc274ee9	-0.010211685
121	0xbdb737c7	-0.089461856
122	0xbd3555f3	-0.04427142
123	0xbbec0ea3	-0.0072038933
124	0xbc68ba5a	-0.014204586
125	0x3dccf383	0.10007384
126	0xbd8b83ae	-0.06812225
127	0xbdab4f7d	-0.083647706
128	0x3ccc38ef	0.024929492
129	0x3dd4080e	0.10353099
130	0x3df51715	0.11967293
131	0x3dc407e2	0.09571816
132	0x3e14ee35	0.14543994
133	0xbcd89520	-0.026438296
134	0x3b892e79	0.004186448
135	0x3dd9a6b2	0.10627498
136	0x3d5b29d6	0.053506695
137	0x3db49bd5	0.08818785
138	0xbbec6f35	-0.0072154053
139	0x3dd0f914	0.10203758
140	0xbcfa901a	-0.030586291
141	0x3dfccfe0	0.123443365
142	0xbc5d4f8a	-0.013507733
143	0x3df3feab	0.119138084
144	0x3dd1ea20	0.10249734
145	0x3d5d015c	0.053956375
146	0x3de76d06	0.113000914
147	0xbc484f13	-0.012225884
148	0xbbb8342e	-0.0056214547
149	0x3dd53116	0.10409753
150	0x3d1043ea	0.035221018
151	0xbdec862f	-0.11549031
152	0x3cf4fcd4	0.029905714
153	0x3dacf32a	0.08444817
154	0x3d4f76c1	0.050650362
155	0x3cac58c6	0.021038424
156	0x3d3b3b51	0.045710865
157	0xbc030027	-0.007995642
158	0x3d9d2bdf	0.07674383
159	0x3d76c15c	0.060242996
160	0x3db7779b	0.0895836
161	0x3d617f39	0.05505297
162	0x3e3fe90b	0.18741243
163	0xbd5ae845	-0.053444166
164	0x3d5260bc	0.051361784
165	0x3e220949	0.15823855
166	0x3d199362	0.03749407
167	0x3de50c9c	0.11184046
168	0xbbdcb1c9	-0.006735061
169	0xbd1fb443	-0.03899027
170	0x3e9520c7	0.2912657
171	0x3da2da77	0.07951825
172	0x3e0ee95f	0.13956212
173	0x3e046250	0.12928128
174	0x3d5abd80	0.053403378
175	0x3cef821d	0.029236848
176	0x3daec2e9	0.0853327
177	0x3d57ecae	0.05271595
178	0x3e1cfdc0	0.15331173
179	0x3ca0daa2	0.019635502
180	0x3e3573ea	0.17719999
181	0xbcb43570	-0.021998137
182	0x3d14b88c	0.03630881
183	0x3e02c561	0.12770607
184	0xbd8ba6bd	-0.06818912
185	0xbcbc1a3c	-0.022961728
186	0xbda88257	-0.08227985
187	0x3d77fe49	0.06054524
188	0x3db8c52c	0.090219826
189	0x3c9cc764	0.019138046
190	0x3c89cb99	0.016820716
191	0xbd193ee8	-0.037413508
192	0x3dc2588f	0.094895475
193	0x3e680189	0.22656836
194	0x3e071f40	0.13195515
195	0x3dca656e	0.098826274
196	0x3d13b9d0	0.036065876
197	0x3e1851a0	0.14874887
198	0x3dc05b61	0.09392429
199	0x3e100ba1	0.14066936
200	0x3d9f2bc9	0.07772023
201	0x3dd8e83c	0.1059117
202	0x3d99ac84	0.07503608
203	0x3d0afe86	0.03393414
204	0xbce5af09	-0.028037565
205	0x3deb7aad	0.11498008
206	0x3d98e271	0.07465065
207	0x3e37736e	0.17915127
208	0x3ddad102	0.10684396
209	0x3e291490	0.1651175
210	0x3c8e76e2	0.017390672
211	0x3c61cacf	0.0137812635
212	0x3d53f692	0.05174882
213	0xbd37c2a5	-0.044863362
214	0x3d98c60b	0.07459649
215	0x3cd32d7f	0.02577853
216	0xbde3858c	-0.111094564
217	0x3de3f34c	0.111303896
218	0x3e920ce4	0.2852546
219	0xbd99f937	-0.07518237
220	0x3e07d560	0.1326499
221	0x3dc2476f	0.09486281
222	0x3d298129	0.041382942
223	0xbc00c940	-0.007860482
224	0xbc00dd42	-0.007865252
225	0x3a1e69bd	0.0006042978
226	0x3d26dd2f	0.04073828
227	0x3e750d16	0.23930773
228	0x3d68fdcb	0.05688266
229	0xbdd1116e	-0.102084026
230	0x3d9e70b5	0.07736341
231	0x3d21d2ef	0.039507803
232	0x3d2f7318	0.04283437
233	0xbc9a120f	-0.01880744
234	0xbd5a3740	-0.053275347
235	0x3cd2f94d	0.025753642
236	0x3d69766d	0.056997705
237	0xbd13a9f6	-0.03605076
238	0x3e3fa95d	0.1871695
239	0x3d94f00c	0.07272348
240	0x3d649b8f	0.055812415
241	0x3c9169e2	0.017750684
242	0xbb2a4670	-0.0025981925
243	0x3e1ee8b9	0.15518464
244	0xbd98b20e	-0.07455836
245	0x3ccab261	0.02474326
246	0xbe28378e	-0.16427442
247	0x3b94fb98	0.004546594
248	0x3d800131	0.06250227
249	0xbc6be2c9	-0.0143973315
250	0x3df7a981	0.12092877
251	0x3db21e01	0.08697129
252	0x3d7deb34	0.061991885
253	0x3dbb1dab	0.09136518
254	0x3e6f4724	0.23366982
255	0x3ce716d8	0.028209135

fc.weight f4 [20, 128]
0	0xbe91796b	-0.28412947
1	0x3e2a76c3	0.16646867
2	0xbe8f72b3	-0.28017196
3	0xbe0ea930	-0.13931727
4	0xbe10e825	-0.14151056
5	0x3e6c0cc7	0.23051749
6	0x3d7b72af	0.061388668
7	0xbe075764	-0.1321693
8	0x3db1a81d	0.08674643
9	0xbb1eeb65	-0.0024249193
10	0x3e796c73	0.24357776
11	0xbd8642de	-0.06555723
12	0xb989078a	-0.00026136293
13	0x3d3c980d	0.046043444
14	0xbe53a9bc	-0.20670217
15	0xbc9c2f99	-0.019065665
16	0x3daade80	0.0834322
17	0xbbe9de06	-0.007137063
18	0x3ce1f797	0.02758388
19	0xbd9dbb27	-0.07701712
20	0xbb41cf61	-0.002957307
21	0x3d964a79	0.07338423
22	0x3d368c3f	0.044567343
23	0xbc44da16	-0.012014886
24	0x3d7eaedc	0.062178478
25	0xbdc3cc31	-0.09560431
26	0x3e03ba1f	0.12863968
27	0x3e6eb8e2	0.23312715
28	0xbd94cd0f	-0.07265674
29	0x3d64a8fb	0.055825215
30	0xbd636e43	-0.055525076
31	0x3e54f014	0.20794708
32	0xbe1b5276	-0.15168175
33	0x3e91587a	0.28387815
34	0x3e41556e	0.18880245
35	0x3d66db9b	0.056361776
36	0x3e009e33	0.12560348
37	0xbe2639da	-0.16233006
38	0x3d8cd318	0.068762004
39	0x3e1cee44	0.15325266
40	0x3e42ec90	0.19035554
41	0xbe40ea88	-0.18839467
42	0x3eb32b73	0.34994087
43	0xbd54120c	-0.051775023
44	0xbe231039	-0.15924157
45	0xbe51727c	-0.20453829
46	0x3d05d635	0.032674987
47	0xbb305296	-0.0026904694
48	0x3ebcccac	0.36874902
49	0xbb03760c	-0.0020059375
50	0x3e3d19ab	0.18466823
51	0x3d192d92	0.037396975
52	0xbe5c0245	-0.21485241
53	0x3e362cd2	0.17790535
54	0xbef9b655	-0.4877192
55	0x3dec1c4d	0.115288354
56	0x3da10ffc	0.07864377
57	0x3aaaa270	0.0013018381
58	0xbdcf676e	-0.101271495
59	0x3e77b015	0.24188264
60	0xbd0d69f0	-0.034524858
61	0xba07af35	-0.0005175949
62	0xbc7b6584	-0.015344027
63	0xbd6c1729	-0.057639275
64	0xbd0f7e58	-0.0350326
65	0x3b28e025	0.0025768366
66	0x3c42ef24	0.011897836
67	0xbd9c4ec8	-0.07632214
68	0xbe6907e7	-0.22756921
69	0x3ec7c1af	0.39014956
70	0x3d9a00c2	0.07519676
71	0x3d0e4eb0	0.03474301
72	0xbe01a396	-0.1266006
73	0x3e767460	0.24067831
74	0x3edb783b	0.42865166
75	0xbe07aa00	-0.13248444
76	0xbdc21b31	-0.094778426
77	0xbdc2b393	-0.09506907
78	0xbe199eb0	-0.1500194
79	0xbdc7af9e	-0.09750293
80	0x3e3499ca	0.17636791
81	0x3d7406bf	0.059576746
82	0x3e2d15d7	0.16902862
83	0x3d7685db	0.06018625
84	0x3e88ddfa	0.26731855
85	0xbe524fe3	-0.20538287
86	0xbc9b9a37	-0.018994434
87	0x3d93c48d	0.072152235
88	0x3e869725	0.2628719
89	0x3e7a8cb0	0.2446773
90	0xbcf06d71	-0.02934906
91	0x3ed81e7e	0.42210764
92	0xbce42a39	-0.027852165
93	0xbe49aaab	-0.19694011
94	0x3d807fb7	0.0627436
95	0xbdf739cc	-0.12071571
96	0xbc87e09c	-0.016586594
97	0xbbe5f1ad	-0.0070173354
98	0xbd89e76d	-0.06733594
99	0x3e2a4835	0.16629107
100	0xbde6d4af	-0.11271035
101	0xbe60039e	-0.2187638
102	0xbe449d9a	-0.19200745
103	0xbe2369c8	-0.15958321
104	0xbc43691b	-0.011926915
105	0xbe5628cc	-0.20914
106	0x3ec06cb6	0.3758294
107	0x3e047e1c	0.12938732
108	0xbe2b1f27	-0.16711102
109	0xbbdbbe66	-0.006706047
110	0x3e551d07	0.20811854
111	0xbdd5acb7	-0.10433333
112	0xbe3733a5	-0.17890795
113	0x3e3af860	0.1825881
114	0x3d2f12ea	0.042742647
115	0x3e4f2eaa	0.20232645
116	0xbd38ac62	-0.045086272
117	0xbe5822b2	-0.21106985
118	0x3e1454ca	0.1448547
119	0xbd8235b5	-0.063579
120	0x3e641487	0.22273456
121	0xbe1556e9	-0.14583935
122	0xbe89f9f5	-0.26948515
123	0xbea58a31	-0.32331994
124	0x3e32e46f	0.17469953
125	0xbda674a7	-0.081277184
126	0x3d0d19f1	0.034448568
127	0xbdb5b79c	-0.08872911
128	0xbd35399b	-0.04424439
129	0xbe0e6a1a	-0.13907662
130	0xbd796e38	-0.06089613
131	0x3e044c30	0.12919688
132	0x3d6b56a1	0.057455663
133	0xbe7ddb2d	-0.2479064
134	0xbd17a4cf	-0.037022408
135	0x3e896743	0.26836595
136	0xbd512d92	-0.05106885
137	0x3ed204f4	0.41019404
138	0x3de2ea27	0.11079817
139	0xbc875677	-0.016520722
140	0xbdaad565	-0.08341483
141	0x3e82a064	0.25512993
142	0xbe3e32fe	-0.1857414
143	0x3cac5502	0.021036629
144	0xbd54949d	-0.05189954
145	0xbef7589c	-0.4830979
146	0xbe4fa5be	-0.2027807
147	0x3e83be1a	0.25730973
148	0xbe0e3062	-0.13885644
149	0xbe18a74c	-0.14907569
150	0xbe404976	-0.18778023
151	0xbd3e7c6e	-0.046505384
152	0x3e8e50e0	0.27796078
153	0xbdff91ae	-0.12478958
154	0xbe63877d	-0.22219653
155	0xbd78d476	-0.060749494
156	0x3df6c3dc	0.12049076
157	0x3cb7ad93	0.022421634
158	0xbeac89e2	-0.33698946
159	0xbe08a51c	-0.13344234
160	0x3e42b09a	0.1901268
161	0xbf3e6651	-0.7437487
162	0x3e040f44	0.12896448
163	0x3e9d9455	0.3077723
164	0x3b9103d8	0.004425507
165	0x3eb0cd23	0.34531507
166	0x3d031ac4	0.032007948
167	0xbd9641e5	-0.07336787
168	0x3ededd2f	0.43528125
169	0xbdad5470	-0.08463371
170	0x3ea3b2d7	0.3197238
171	0x3db16908	0.08662611
172	0x3d759f92	0.05996663
173	0xbf138777	-0.5762858
174	0xbce0bcae	-0.02743372
175	0x3e89c015	0.2690436
176	0x3e512b6e	0.20426723
177	0x3e1876e1	0.14889099
178	0x3e2cc5b6	0.16872296
179	0xbeafbb0f	-0.34322402
180	0x3e28dbce	0.16490099
181	0xbeae8916	-0.34088963
182	0x3e185052	0.1487439
183	0xbe2ba0d9	-0.16760577
184	0x3df3b4e4	0.118997365
185	0x3d87d4ca	0.06632383
186	0xbe207eaf	-0.15673326
187	0xbcb8fd8e	-0.022581842
188	0xbd05d764	-0.032676116
189	0x3e48d076	0.19610772
190	0x3e499558	0.19685876
191	0x3c9a8b44	0.018865235
192	0x3cbb0652	0.022830162
193	0x3e34681e	0.17617843
194	0x3e82faa3	0.25581846
195	0xbde30c81	-0.11086369
196	0xbd227cc7	-0.03966978
197	0xbe3963b0	-0.18104434
198	0xbd0b7be4	-0.0340537
199	0xbe28a8b6	-0.16470608
200	0xbd4b8506	-0.049687408
201	0x3ca4538e	0.020059373
202	0xbe8df82e	-0.2772841
203	0x3e248b80	0.1606884
204	0x3e65bb6e	0.2243478
205	0xbefbc1c1	-0.4917126
206	0x3e5281c7	0.20557319
207	0x3eb58d7e	0.35459512
208	0x3ec99e2a	0.39378482
209	0x3dca8039	0.09887738
210	0x3ce8137a	0.0283296
211	0xbe628d0d	-0.22124119
212	0xbe5e4e20	-0.2170949
213	0x3ea7866a	0.32719737
214	0xbddac4cb	-0.106820665
215	0xbd6dbd7a	-0.058042027
216	0xbe2bbe4d	-0.16771813
217	0x3e3d52e1	0.18488647
218	0xbefba721	-0.49150947
219	0x3edfb1f0	0.43690443
220	0x3e0eb454	0.13935977
221	0xbdde3e0b	-0.108516775
222	0x3e43e46c	0.19130105
223	0x3e5dea22	0.21671346
224	0x3dc930fd	0.09823797
225	0xbd100123	-0.035157334
226	0x3eaaa07d	0.33325568
227	0xbe2c1b5a	-0.16807309
228	0x3eb8a035	0.36059728
229	0xbe900a2d	-0.28132764
230	0xbe93149d	-0.28726664
231	0x3e38bcaa	0.1804072
232	0x3e92ea08	0.28694177
233	0xbe9d5eeb	-0.3073648
234	0x3de63edb	0.112424575
235	0xbd51a2d7	-0.051180687
236	0x3ef20a83	0.47273645
237	0xbcb47de2	-0.022032682
238	0xbdc06a58	-0.093952835
239	0x3ea8c4da	0.32962686
240	0x3ca4a915	0.020100156
241	0xbe434acd	-0.19071503
242	0x3c805163	0.015663808
243	0xbe676a62	-0.22599176
244	0xbe010195	-0.1259826
245	0xbe557ebd	-0.20849128
246	0x3dea252c	0.11432871
247	0xbd41791f	-0.04723465
248	0x3d2ced4b	0.042218488
249	0x3f1ab196	0.60427225
250	0x3f16c71f	0.58897585
251	0xbd92f6bb	-0.07175966
252	0x3e0f7af4	0.14011747
253	0xbdc10999	-0.09425659
254	0xbef00dd2	-0.46885544
255	0x3d87c457	0.06629246

fc.bias f4 [20]
0	0x3dcf2556	0.10114543
1	0xbd8f68eb	-0.070024334
2	0x3d9f113f	0.07766961
3	0xbe7da76d	-0.24770899
4	0xbe2b33f6	-0.1671904
5	0x3ddd46ba	0.10804506
6	0x3e8ccdad	0.27500668
7	0xbe5cee7a	-0.21575347
8	0xbd639337	-0.055560317
9	0x3e9be29b	0.30446324
10	0x3e0418c0	0.12900066
11	0xbceddf99	-0.029037284
12	0xbe1d9b1e	-0.15391204
13	0x3df35baa	0.11882718
14	0xbe1bd815	-0.15219148
15	0xbe84f938	-0.2597139
16	0xbd4561cf	-0.04818898
17	0x3c75b041	0.0149956355
18	0x3e486f07	0.19573604
19	0xbb5109e3	-0.0031896762
