models/deep_learning/lstm_model.pth (torch, 484006 bytes, 6 tensors)

lstm.weight_ih_l0 f4 [512, 100]
00000000: c6b9 483d 1ef3 f43c 1159 b4bc b152 2e3e
00000010: dc4c 4fbb 6740 9fbc 336c 423e 1cb1 7c3c
00000020: b72b 79bd 1756 5a3e a3ce 6cbd 0c82 1cbd
00000030: 4f88 023e df23 17bd 7793 1f3c bf03 d63d
00000040: bed7 7bbd f4ac ddbd c188 803d a0df 41be
00000050: c01c 33be 22a9 a43d 832a edbd f246 263e
00000060: 5374 51bc c006 17be 11c8 a53d 7ecc 2f3e
00000070: 8e3e 463e 8198 03bd ecc2 4abe 3bca 66bd
00000080: 5366 98bd 82e1 ccbd a14b a8bc 42fa 01bd
00000090: d53e 663d afcd be3d 0b49 69be cb8d 463e
000000a0: 5fe2 853b 1bb1 e33a 5951 05bd 5115 093e
000000b0: f863 1d3d 8560 17be d4b2 513e 8cbb b43e
000000c0: 6cbf e8bd 871e 2b3e 057b 553e 7609 653e
000000d0: 1e6f 4fbc 9bfb 1c3c 89b0 38bd b3ae 283e
000000e0: 2af3 0abc d736 e93d 8324 16be 031b 313c
000000f0: b1fc babd 1c77 8dbe c4b3 80bd c576 123c
00000100: ede5 f53c 7c6e f53d 8cd1 07be b2ca 1bbe
00000110: 21da b0bc ed1b 33bd 9608 003e 8aa5 1bbe
00000120: 7966 9a3c 0c93 453e 1a27 d43d 9995 083e
00000130: d53e 73bd 4509 9e3d 625e 72bc 7d19 bcbd
00000140: bffb 3fbe f47e 8a3e bba6 5a3d 98e6 ec3d
00000150: bd20 4e3e 772f cb3c e14a bfbd f16c 343e
00000160: dc2c ac3d 973a 8e3d 7643 a5be 6c79 ddbb
00000170: a8f0 97bd 4926 68bd 1316 b8bc 0682 15be
00000180: a1e3 a03d f6d5 fb3d 8d89 5bbd 645e ce3d
00000190: 5fd6 b1bd 8e17 b1bc b5fc 30bd 9a72 803e
000001a0: 5723 07bd 18ef 5f3c 93ca ed3d e74e bb3c
000001b0: 4523 40bc 3de7 8d3d 491d 17be 9bae 33bb
000001c0: a1d3 e63d ac87 f03d 05bb b13d 325c e43c
000001d0: 91d3 a1bd a74f 3a3e 6428 fe3d f113 2f3b
000001e0: d173 54be b637 943e c257 0e3e 3544 653d
000001f0: 0b60 80bd 1feb eb3c 899e 25be 2782 673d
00000200: c3d2 e03d c559 4d3d a077 4c3e b8f4 50be
00000210: 5bc0 253d 212e 623e cf01 1b3e a78a b9bc
00000220: 8c19 cc3d 6f7b 37bd bccf 13bd d71a 15bd
00000230: 4727 ffbb 9dc4 1c3e 7820 f53d e214 283e
00000240: 1f51 193d 961f 90bd 5aa6 743c 6ae1 3f3e
00000250: bfc2 f43d cd6d 7c3e cd9c 2cbd 9c32 9b3c
00000260: 7522 12be 34ba 1ebe 8f59 ed3c 2275 f03d
00000270: 7cd8 483d de98 afbb e253 09be bfbe 4b3d
00000280: 2147 b13d 95df 3e3d 3dfe 523e b8cc 883d
00000290: 1f8b fbbd ba9e c33c 6a50 8f3c 8c81 5e3d
000002a0: 31ed 21bc b3ce abbe 9453 05bd 1deb fa3b
000002b0: 83be e93d cf35 3d3d 82e3 d6bd 9ccb d6bd
000002c0: ec8b 233e 01fe edbc f523 803d 8481 ab3d
000002d0: f309 c9bd 00c6 d13d 6595 36be 6c26 1dbd
000002e0: f65f 1b3d 9ad8 d6bd 48a4 dd3d 062f 303e
000002f0: 1370 36bd 7656 f53d c889 2abe ca78 10bb
00000300: cb7c 793b e616 43bd d696 023e 10db d6bc
00000310: 36d6 88bd 4822 8fbd 9629 c2be 05d6 ecbd
00000320: 7d2f 0bbb 1099 74bd f2b9 543d 23f0 423d
00000330: 7621 173e 2f1a 06bd 7290 e23d e79f 443d
00000340: 054c f13b 9702 cfba 52b3 14be 336e 993b
00000350: 3e62 323e 3095 bcbd 806b a1bc c6f3 a43d
00000360: 9376 40bd 10f9 9e3e 9ab6 413e 9dd2 e3bd
00000370: 2671 d73c 92ea 04bd 207e e8bd 9f5d 24bc
00000380: 2acd a33e 6cf4 663d 32ca 98be 9bcb 5dbd
00000390: c211 9c3d b59c 0e3e 0352 153d 723e 8abd
000003a0: ae82 93be 4a58 0d3d 6e0e c23d e4a0 243e
000003b0: 9aee e23d 27fe 41bd e02e 473e 081f 8fbe
000003c0: 62c5 743d 9f48 d5bd e8fe 063e 323e ec3d
000003d0: d1f6 ac3c d0fc b3bd 7522 2b3d 5f4d 9f3d
000003e0: 061b d0bb 0cdc df3c b95c 5f3d ac6d 523d
000003f0: 597e 4bbe caef 953d 0c61 a83e fcf7 5a3d
0.049005292 0.029901084 -0.022015126 0.17023732 -0.0031631505 -0.01943989 0.18986587 0.015423086
-0.060832705 0.21321903 -0.05781425 -0.03820996 0.1274731 -0.036899444 0.009739748 0.10449933
-0.061485045 -0.10824004 0.06276084 -0.18932962 -0.17491436 0.08040072 -0.11580374 0.16238001
-0.0127840815 -0.14748669 0.080948 0.17167851 0.193598 -0.03212786 -0.1980092 -0.056345206
-0.07441392 -0.1000395 -0.020543875 -0.031732805 0.056212265 0.09316575 -0.2278177 0.19390027
0.0040858234 0.0017371507 -0.032548282 0.13387038 0.038425416 -0.14782913 0.20478374 0.35299337
-0.11364636 0.16710864 0.2084771 0.2236689 -0.01266077 0.009581472 -0.045090232 0.16472892
-0.008480826 0.11387413 -0.14662366 0.010809663 -0.09130228 -0.27629936 -0.062842876 0.00893945
0.030016864 0.11983964 -0.1326353 -0.15214041 -0.021588387 -0.043727804 0.12503275 -0.15199867
0.01884769 0.19294375 0.103590205 0.13338317 -0.059386093 0.07716612 -0.01479301 -0.09184549
-0.18748377 0.27049983 0.053381663 0.1156742 0.20129676 0.024802906 -0.09340454 0.17619683
0.08406994 0.06944769 -0.3227803 -0.0067588594 -0.074189484 -0.056677137 -0.022471463 -0.14600381
0.07855917 0.12296669 -0.053597976 0.10076597 -0.08683466 -0.021617677 -0.04320975 0.25087434
-0.032992687 0.013667844 0.116109036 0.022864772 -0.011727159 0.06928871 -0.14757265 -0.0027417305
0.11270834 0.11744627 0.08678249 0.027875993 -0.07901681 0.18194447 0.12410048 0.0026714767
-0.20747305 0.28948754 0.13900664 0.05597325 -0.06268319 0.028798638 -0.16173758 0.056520607
0.109776996 0.05013444 0.19967508 -0.20405853 0.040466648 0.2208791 0.15137409 -0.022649122
0.0996581 -0.04479545 -0.036086783 -0.03640255 -0.0077866646 0.15309377 0.119690835 0.16414216
0.03743088 -0.070372745 0.014932239 0.18738332 0.11951207 0.2465126 -0.042141724 0.01894503
-0.14270957 -0.15500718 0.028973369 0.11741091 0.04903458 -0.0053587994 -0.13410905 0.049742457
0.08656145 0.046599943 0.20604797 0.06679672 -0.122823946 0.023879398 0.0174944 0.054322764
-0.009883211 -0.33556136 -0.03255041 0.007657422 0.1141329 0.046193894 -0.104926124 -0.10488054
0.15971345 -0.029051783 0.06256858 0.083743125 -0.09816351 0.10242844 -0.17830427 -0.03836672
0.037933312 -0.10490532 0.1082235 0.17205438 -0.044540476 0.11979382 -0.16654122 -0.0022044652
0.0038068767 -0.04762926 0.12752852 -0.026227504 -0.066814825 -0.069889605 -0.37922353 -0.115642585
-0.0021238022 -0.059716284 0.051935144 0.047592293 0.14758858 -0.032739814 0.11062707 0.048004057
0.0073637986 -0.0015793619 -0.1452153 0.004682326 0.17420289 -0.09208143 -0.01970458 0.080543086
-0.04698808 0.31049395 0.18917313 -0.11124156 0.02629907 -0.032450266 -0.113521814 -0.010032087
0.31992465 0.056385443 -0.29841763 -0.05414925 0.076205745 0.13926966 0.036455166 -0.06750192
-0.28810638 0.034508027 0.094754085 0.16077 0.11080666 -0.04736152 0.19451475 -0.27953362
0.05975855 -0.10414242 0.13183177 0.115353 0.021113785 -0.087884545 0.041780908 0.07778429
-0.0063508777 0.027326606 0.054531787 0.051374123 -0.19872417 0.07321127 0.3288654 0.053459153

lstm.weight_hh_l0 f4 [512, 128]
00000000: 476e c73d 6005 33bd b6c6 073d 8874 13be
00000010: f835 333d 8091 053e 0108 b1bd 42a4 3dbd
00000020: c5b6 cf3b 822d 9a3d 03de b7bd 013f 1bbd
00000030: 1ba5 a7bd b404 efbd 3113 2bbe 4ceb ffbd
00000040: a109 793d e454 303e 2dfa 9bbd 673d 0e3e
00000050: 19db 8dbe bc56 823d 7493 a8be 7a77 113c
00000060: e27a 9b3b b949 a9bd 8c78 913d 1105 963c
00000070: f50b 0fbe 5c22 30bd d46a 493d 9c97 6cbe
00000080: b3dd 69be 9978 83bd 7e6f 023e e81d 65bd
00000090: c153 d03d 0d65 25be a077 e0bd 8831 c03d
000000a0: b0ed 0cbd ec9b d23b d92c 303d ec1b 8bbd
000000b0: 9f13 213e 8599 773d e91b 5cbe cf3a 14bd
000000c0: c79a 53bd 929e 923b c7d4 c4bd e1db 38be
000000d0: 2d1d bbbd e335 1c3e 287a a4bd e06e e5bc
000000e0: a577 953d ed9d 0c3e d7e1 d2bc e692 9abd
000000f0: 0447 913d 7d15 a63d 549d fcbc d0a5 f9bd
00000100: 55fc d33d 0257 9ebd e5cd 783d a339 95bb
00000110: 58a4 dcbd 3541 28be ea85 53be a013 a03c
00000120: 52cd 54be 6b6f 4c3d 4233 3c3d df9e c53c
00000130: 8fbc c2bd 8fab 02be 659c f03d b777 e2bc
00000140: 8fca 4b3d eac6 38be 0286 01be a03c 81bc
00000150: 433d 8cbd da6a 9bbe 7d92 91bd b3dd 5bbd
00000160: 820e 5c3c a25a 183e 0282 8abd c973 47bd
00000170: d797 743d 19d3 0dbe 3517 4fbb 766c fa3d
00000180: 2cf9 b8bd d2ba d6bd 483c acbc 9897 133d
00000190: eff5 c9bc 2564 d0bd 16e2 67bc 25e8 09be
000001a0: 8258 603d deff 9cbc 9ecd 353d 930a 463c
000001b0: 2df9 72be 7512 71bd 0c38 153e 7ff9 8f3d
000001c0: 00aa d1bc 9378 f43d a7ff a33d 54b7 773d
000001d0: c4ca 3a3d dfa0 333e 8035 3bbc ff7f 693d
000001e0: 4945 0a3e 9c37 80bd 5efa 7bbd 0cdd b4bc
000001f0: a0d4 273d ffc0 ad3d 6314 ea3d 335b b0bd
00000200: 497d 903d 4771 18be cdee 123d 0225 e7bd
00000210: 0417 8d3a 6b32 f93c db7d 45be 9415 98bd
00000220: 7528 143c 64e3 663b eb03 fc3d 7544 fdbc
00000230: cf80 5b3e c3c6 e33c 8e2d 113e 3219 e73d
00000240: 7b55 74be 39af d23e b782 bc3c 11c9 2d3d
00000250: b97e 9ebd 1124 df3d 54f1 64be b079 e13d
00000260: e7b3 9fbc cd3a 893e 6952 53bd ffd5 563d
00000270: 7cef 5fbd 3c30 953d 2be7 8fbe ca24 123d
00000280: f346 d7bb 670f 99bd 7fc1 233e a822 983b
00000290: d234 e13b bd4d 5cbc 24e1 af3b 7b3c 2b3d
000002a0: 416b c1bb 820b fabd 2a1d 503e 09a7 f13d
000002b0: 822e d6bd 0dcf 043e 036b 71bd eed4 a33c
000002c0: 4077 953c 6a7a 29bd 1a55 3dbd 3952 9bbc
000002d0: 151f 4ebe 6b3a 4a3d c0c8 69bd 8388 793d
000002e0: f650 b63d da68 ce3d 9a13 cc3d d4db 1bbe
000002f0: 312a e0bd a630 553b 21d1 eebd 20de fcbc
00000300: 9f20 74be 1b73 993d 6550 1b3c c9dd 873d
00000310: ca95 703e 9383 033e fe54 8f3e 2b74 083e
00000320: 420a b23d 4f8e 43be 594c d13d eaca c33d
00000330: 4744 ffbd 8bad 44bd eca2 cebc a777 163e
00000340: b492 97be 655c 6dbd b913 1abe 1cd8 a3bc
00000350: 72ac cb3d 94d0 5fbd 2d2b 743d 49c8 0dbd
00000360: b379 333c d3ac 6eb9 d817 6e3e 0bf8 17bd
00000370: 2e61 d73d 0e9a d33d e6c3 b83d 8e05 dbbc
00000380: 233b 45bd b997 9fbd 15f9 623e 1217 413e
00000390: 88bd aebd efa0 0e3d 33f3 2fbb 49aa d33d
000003a0: 3dc4 903b d6ff a03d 8553 4d3d ba3e 693d
000003b0: 1891 13be 0adb f13d b8de 57bd 3fc6 d73b
000003c0: 1228 653d e7cf 94bd f5e5 06be cf90 cabd
000003d0: 7801 3a3d 49f7 543b 90b3 e3bc 96f9 833d
000003e0: da13 b83d f3b4 d73d dc62 e53c 3cd3 c03d
000003f0: 6bfe 0dbd 0a8d afbd 9b86 5b3b 114c 08bd
0.097378306 -0.043706298 0.03314849 -0.14399922 0.04375264 0.13043785 -0.08644105 -0.046299227
0.0063389265 0.07528211 -0.08977892 -0.037901882 -0.08185788 -0.11670819 -0.1670654 -0.12496051
0.0608002 0.17219883 -0.076160766 0.1389061 -0.2770622 0.063641995 -0.32924998 0.008878583
0.0047448734 -0.082660146 0.071030706 0.018312963 -0.13969405 -0.043001518 0.049174145 -0.2310471
-0.22838478 -0.064194866 0.12737843 -0.055936724 0.10172225 -0.16151829 -0.10960317 0.09384447
-0.034406364 0.0064272787 0.04301152 -0.06792435 0.15730141 0.060449142 -0.21495022 -0.036188897
-0.05166128 0.0044744695 -0.096108966 -0.18052627 -0.09136424 0.15254931 -0.08031112 -0.02800697
0.07298211 0.13732119 -0.025742454 -0.0754755 0.07093623 0.08109567 -0.030836739 -0.12189829
0.10350863 -0.07731439 0.06074323 -0.00455399 -0.107735336 -0.16431125 -0.20656553 0.019540608
-0.20781448 0.049910944 0.04594732 0.024123607 -0.09508621 -0.12760757 0.1174858 -0.027644975
0.04975372 -0.1804463 -0.12648776 -0.015775979 -0.06847622 -0.3035496 -0.071080185 -0.053678226
0.013431193 0.14878324 -0.06763078 -0.048694406 0.05971512 -0.13850059 -0.0031599526 0.122277185
-0.09031901 -0.10484852 -0.021024838 0.036033243 -0.024653403 -0.10175351 -0.014153024 -0.13467462
0.054771908 -0.019164976 0.044385545 0.012087482 -0.23727866 -0.058855493 0.14572161 0.070300095
-0.025593758 0.1193706 0.08007746 0.06047757 0.04560353 0.17541836 -0.01142633 0.057006832
0.13502993 -0.06260607 -0.061518066 -0.02207806 0.04097426 0.08484077 0.1142967 -0.08611145
0.07055146 -0.14886962 0.03587227 -0.112863556 0.0010764305 0.030419549 -0.19286291 -0.07425991
0.009042849 0.003523075 0.12305435 -0.030916432 0.21435855 0.027804738 0.14177534 0.112841025
-0.23860733 0.4114931 0.023011548 0.04242808 -0.07739014 0.10895551 -0.22357684 0.11009538
-0.019494964 0.26802674 -0.051592264 0.052450176 -0.05467175 0.072845906 -0.28106055 0.035679616
-0.006569737 -0.07473641 0.15991782 0.004642803 0.0068727518 -0.013446269 0.005367415 0.041805726
-0.0059026782 -0.12209226 0.20323625 0.117994376 -0.104580894 0.12969609 -0.058939945 0.019998994
0.01824534 -0.04137651 -0.046223737 -0.018960105 -0.20129044 0.049372118 -0.057076216 0.060921203
0.08902161 0.100785926 0.09964676 -0.15220577 -0.10945547 0.0032530217 -0.11660982 -0.030867636
-0.23840569 0.07492658 0.009479617 0.06634099 0.2349464 0.1284316 0.2799453 0.13325565
0.08693363 -0.19097255 0.1021964 0.09560187 -0.12464195 -0.048017066 -0.025224172 0.14694081
-0.29604113 -0.057949442 -0.15046586 -0.02000051 0.09945001 -0.054642275 0.059611488 -0.034614835
0.010954308 -0.00022761831 0.23251283 -0.037101787 0.105165824 0.10332118 0.0902174 -0.026736047
-0.0481521 -0.07792611 0.2216533 0.18856457 -0.08532244 0.034821447 -0.002684784 0.10335214
0.0044179247 0.07861297 0.05012848 0.056944586 -0.14410818 0.118093565 -0.052702636 0.006584912
0.055946417 -0.07266217 -0.13173659 -0.09890901 0.045411557 0.0032496026 -0.027795583 0.06444089
0.089881614 0.1053256 0.028001241 0.0941529 -0.03466646 -0.08571823 0.003349698 -0.033275668

lstm.bias_ih_l0 f4 [512]
00000000: a237 10be 1739 b0bc 15df fabd 1923 aebd
00000010: 52b6 4d3c a477 8bbd 33c1 6dbe 634e 11bd
00000020: 9054 f8bc a779 75bc 8c05 943d 6e1e 9abd
00000030: 6dcf 34bd c663 1ebd b4b5 4d3b fe01 04bc
00000040: 4116 b43d 5a79 0cbe dfcf f53c 989c 453d
00000050: 0a71 73bd a84e abbd 2a2f ccbd 5ccc 3b3c
00000060: d7d9 83bc 959f e0bd 8ac4 433d 0c75 3e3d
00000070: 9f5a 623d 9cfe 01bd b85c 0bbe 3b89 373d
00000080: 59b9 e9bd 5cab e0bc 5270 8f3d 5e4f fe3d
00000090: 36ab eb3d 92db 963d c38b 5f3d 9e1f c3ba
000000a0: 6a2b febc 006b d73d dd66 d63b df8f afbd
000000b0: 3635 703d 2539 593e 9c7c 62bd d32c 203d
000000c0: 4989 853d c86c de3d 9a6e 5b3e bc3c f53c
000000d0: fe7e e13c 4fdd c3bc 3148 023d a77e f43d
000000e0: ebb8 f6bd ded0 9bbd 374c ea3c 839c 1f3d
000000f0: 741d 9cbd 6da4 c9bd a82a 5d3d 208d 3d3e
00000100: 894e 863d d9e4 983d d974 e6bd 3ce2 a4bd
00000110: ae2b 5dbe 2244 e3bd 65b7 f1bc 586d e43c
00000120: 223b 9e3b 9a58 97bd 4462 2bbd 7c37 0f3d
00000130: 07d8 81bd 51cf 633d eebd 5e39 9ea3 273b
00000140: f648 87bd 8171 293e ac9d 3cbe 943e f7bd
00000150: 63f2 c43d 28f1 6d3c 168d 38be 5494 10bd
00000160: 7d6f f6bd 472f 58be 145c 133c e35c 46bd
00000170: ab55 8abd 4d66 0ebd 89cb 18bd dd83 f33d
00000180: 6e0b 06be 0404 98bd 76f5 6cbd 1c95 143d
00000190: ed5e cdbd 2d9a 9e3d f893 ebbd 387e 19bd
000001a0: 7625 e8bc 0887 c73d 6330 8c3d 508e febc
000001b0: e1a5 01be 13da 943d 8b11 97bd d767 863d
000001c0: f3fb e43c 7ad8 a23d f214 91bd 1502 66bd
000001d0: 586c 9ebd a845 17bd 7089 9dbd 8b4c 2b3e
000001e0: 1767 2fbe 203b 18bd a3dd 043d b852 253d
000001f0: f86c ed3d e820 94bd 31c1 7ebc 8360 463c
00000200: e365 13bd 498a aebd 4dd7 b63d 5589 1d3d
00000210: 89e2 043e 5376 593d ec2b 2d3d b5af f23c
00000220: ee0d 053e 306d 05bd 8d04 3d3e e6a1 393e
00000230: 1d71 073e 0327 2f3e f904 273b 965b f53d
00000240: a259 643d 5039 4c3e 52dd 963d f207 753d
00000250: a33b 09bd 5046 a43d f2cc 253e 8b27 1b3d
00000260: 4eb1 5dbc 8b70 a93c 51f8 003e 3dba 1f3e
00000270: 9c92 543e f1dc 033e e251 0f3e d25f 81bc
00000280: 6b5f b93d 05c2 d6bb ce44 53bc 8821 a93d
00000290: fb0d 103d 7d3d cd3d 6ace 073d 4205 67bd
000002a0: af95 823d 9105 dc3d bb29 fabb 3973 1fbc
000002b0: fab6 5a3d 2ad6 8a3e 7b4a bc3d 190b 593e
000002c0: 0970 983d b0ac a13c cfdd c33d a309 1c3e
000002d0: 8535 cd3c 2121 103e af81 123e 1ff1 e93c
000002e0: 0b0d 75bd 9f50 e43d 7a45 3f3d d7ca 253e
000002f0: 93b8 e03b fa00 283e df7c 043d 08f2 ed3d
00000300: 481a 303d 74f9 1c3e bef2 fb3c 82e4 dd3d
00000310: a92f 243e 7f20 0f3e 544d 223e 3cb5 023e
00000320: 1383 4e3e b53c 95bd 651d 55bd 6476 b13d
00000330: 6af9 973e 2e24 f1bb ff01 1f3e a036 b33d
00000340: 5c4d 7c3e 7cfb 323e bdf4 b138 ea24 b6bc
00000350: 06d5 983d e433 753b e64b e0bd 8fe4 0c3e
00000360: f96f 02bd 578a 513e bc3c 543d 083e 0f3e
00000370: 77fc 193d 0926 333e 644b b93c b585 be3d
00000380: 403c da3d 1205 a63d 3542 6ebc 943a 623d
00000390: 8d32 f33d ec29 373d 6cc0 4ebd a3bb 023e
000003a0: dedd 8c3d 5120 bf3e 4d7e ec3d f74b 24bd
000003b0: a9ba 51bd 77c5 53bd 68ff 0a3e 08ed 0b3e
000003c0: 0104 033e 51c0 603e feb1 5e3d 4486 343e
000003d0: 162e 9c3c e808 203d 06e9 983d f268 fd3d
000003e0: f98b 30bd 0373 a9bd 5ba9 9a3d 8e5e 343e
000003f0: f8d0 363e 7d52 593d 289c 2e3d b1ff 15bd
-0.14083722 -0.021511598 -0.12249581 -0.08502788 0.012555676 -0.06809929 -0.23218231 -0.035475146
-0.03031376 -0.014982617 0.072276205 -0.07525335 -0.04414313 -0.03866937 0.003138882 -0.008057116
0.08793307 -0.13718167 0.030006347 0.048245043 -0.059433974 -0.08364612 -0.09969933 0.011462297
-0.016095085 -0.10967938 0.047794856 0.046498343 0.055262204 -0.031736955 -0.13609588 0.044808608
-0.114123054 -0.02742546 0.07003845 0.12417482 0.11507265 0.073660985 0.054576647 -0.0014886742
-0.03102656 0.105184555 0.006543024 -0.08572363 0.058644496 0.21213205 -0.055294618 0.039105248
0.06520326 0.10860592 0.2142891 0.029936187 0.027526375 -0.02390924 0.03180713 0.119382195
-0.12046989 -0.07608198 0.028600795 0.03896762 -0.07622805 -0.09845815 0.05399576 0.18510866
0.06557948 0.07465524 -0.11252756 -0.08050963 -0.21598694 -0.1109698 -0.029506395 0.02788417
0.0048288265 -0.07389946 -0.04184176 0.034965023 -0.06340032 0.055617634 0.00021242324 0.0025579701
-0.06605713 0.16547205 -0.18419522 -0.12072483 0.09616544 0.014522828 -0.1802257 -0.035297707
-0.120329835 -0.21111785 0.008994121 -0.048428427 -0.06754621 -0.03476553 -0.03730348 0.11890385
-0.13090298 -0.07422641 -0.057851277 0.036275014 -0.10027871 0.077442504 -0.11502832 -0.037473887
-0.028338175 0.09742552 0.068451665 -0.03107372 -0.12660934 0.07268157 -0.07376393 0.06562775
0.02795217 0.07951446 -0.07084073 -0.05615433 -0.07735509 -0.036931664 -0.0769223 0.16728418
-0.1712917 -0.03716576 0.03243793 0.04036209 0.1159305 -0.07232839 -0.01554899 0.012107971
-0.03598584 -0.085224696 0.08927784 0.03846105 0.12977041 0.05309136 0.042278215 0.0296248
0.12993595 -0.032574832 0.18458767 0.18128166 0.13226743 0.17104726 0.0025485142 0.11980359
0.055749543 0.19943738 0.07366432 0.05982203 -0.03350414 0.080212235 0.16191462 0.037879508
-0.013531042 0.020683547 0.12594725 0.15598388 0.20759052 0.12877251 0.1399608 -0.015792761
0.09051403 -0.0065538906 -0.012894822 0.08258349 0.035169583 0.100214936 0.033155836 -0.0564015
0.06376206 0.10743249 -0.007634369 -0.009732061 0.053397156 0.2711652 0.091938935 0.2119564
0.07443244 0.019735664 0.09563791 0.15238051 0.025049934 0.14075138 0.14307283 0.028557358
-0.059826892 0.1114819 0.046697117 0.16190659 0.0068579405 0.16406623 0.03234565 0.116184294
0.042993814 0.15329534 0.030755397 0.108346 0.16033806 0.1397724 0.15849811 0.12764448
0.20167188 -0.072869696 -0.052029986 0.08665159 0.29682475 -0.0073590493 0.15528105 0.08750653
0.24638885 0.17478746 8.485604e-05 -0.022234399 0.07462506 0.0037414962 -0.109519765 0.13759063
-0.031845067 0.20462929 0.051815733 0.13988507 0.037594285 0.17494978 0.022618957 0.09302846
0.10656023 0.08106436 -0.014542152 0.055231646 0.11874876 0.044717714 -0.050476477 0.1276689
0.06878255 0.37329343 0.115475275 -0.04011151 -0.051203404 -0.05170199 0.13573992 0.13664639
0.12794496 0.21948363 0.054368965 0.17629343 0.019064944 0.039070994 0.07466321 0.12373532
-0.04310224 -0.0827389 0.07551833 0.17614195 0.17853153 0.053057183 0.04262939 -0.0366208

lstm.bias_hh_l0 f4 [512]
00000000: f3f4 45bd 3211 72bd 4e94 a6bd d5d3 69bd
00000010: 9ed5 a2bc 8b43 f33c dd5b 63be a359 18be
00000020: 1588 8fbc ac79 13bd a746 1f3c d18e 86bd
00000030: 9cfa a4bd 0033 1b3d 2ae0 5bbd b9e5 9c3c
00000040: 402d 15bd efea 9bbd 53e9 b93d 300f 51bc
00000050: c513 e2bd 7020 52bb 8490 16be e07a 56bc
00000060: 946b 54bd 9783 9bbd 4ed6 c63d f009 6bbd
00000070: 1598 cbbc 7a80 823d 5e19 81bd f2b1 0dbc
00000080: a58f 43bd 9497 f4bd 7164 d23c 949a c33c
00000090: 405e 393e 0cbc 2a3e 404f 2d3c 492f 66bd
000000a0: 29fd 31bc 15e7 0a3e 6e69 9bbd 3992 abbd
000000b0: 44a4 c23d 5685 c53d 76ba 27be 6c79 143c
000000c0: 947f cf3d 9a52 133e d0f3 683e 5621 47bb
000000d0: 4279 2d3d 8326 a83c ed5b 9bbd 85a6 8e3d
000000e0: 406b 6b3c a9fb abbd ba14 acbc 7b08 703c
000000f0: 8e27 8c3d a6ab a8bd 1dae 09bb e458 463e
00000100: 0826 49bd 8454 c03d ff2d 023d ab95 483d
00000110: 86ea 60be 35cf 79bd 416f 82bd 8f7c 8139
00000120: ec16 983c adf4 46be 5fd4 143c 4a30 1dbd
00000130: 647d b0bd c757 afbd d005 57bb 1e00 4fbc
00000140: 3f40 21be e8d1 433d de3b 85be 922e 563c
00000150: 9615 35bd 1bb9 a83c d419 37be 91ea 413c
00000160: 5825 38bd b124 a9bd 04f3 61bd 8252 0e3c
00000170: 83b9 89bd 1e72 1cbd 26b5 ad3b fea9 643c
00000180: c300 f2bd 7456 7bbd 0cfc 05be 7f37 cfbd
00000190: 3006 463c 7edf ab3d e4a5 e5bd 452e 0c3d
000001a0: 9dd7 07bd 62d6 eb3c 790e c43d 6fc9 cbbd
000001b0: bbe9 bebd b4ed 08bd 888c 6f3d 381e 913d
000001c0: a3cd f5bc 4e3d 213e d7c5 50bd ecf0 57bc
000001d0: f403 403c 7318 8eba 5fc8 1abe 0831 083e
000001e0: 88c4 89bd c0be de3c c8c5 56bd 3cd5 d8bc
000001f0: 64bf 0d3e 9a0c 513d cff4 e5bd 8f0d 6cbc
00000200: c245 b6bd fb39 d53b 76e7 303e 86c5 a93d
00000210: b15f f43d cd83 153d 708d 3dbd 56ad d2bc
00000220: 30ba 373e bb0a 62bd 73f9 3b3e 827a a93d
00000230: 6b82 a83d 9245 f13d fc42 af3c 7667 983d
00000240: ca95 e13c 038f 0f3e 0088 873d a2a6 233e
00000250: 195c 88bd a06e 31bd 821d 5e3e bf03 b33c
00000260: feef c43d edee f03c ecfd e23d 719e 2e3e
00000270: e033 463e ed30 eb3d 2c04 cd3c bd81 053e
00000280: 95e0 c53d 32a5 ebbc 092e eb3c 51b6 2c3e
00000290: 47f6 fd3d c61a 103e 27a6 923d 0735 74bd
000002a0: 3ef6 673d 7fc9 ba3d 1ee6 02bd 283c d23d
000002b0: 46f5 4c3e 9b55 3f3e e342 ae3d 476a 093e
000002c0: 67dc be3c 1b80 473c bdbd 7a3e 253f 7e3d
000002d0: 5498 563d b719 893d 2505 693e 7373 183e
000002e0: 50f0 cd3c 4597 bb3c e10b f33d d1d0 333e
000002f0: de4f 153e 7ea6 113e 4cc8 8d3d 7a8a 073e
00000300: 5c97 053d 5025 983d 129e 3a3d 9f85 2a3e
00000310: a72c 2a3e 5c35 603c 706f c43d 8594 ed3d
00000320: 2d6e 2c3e 74f7 31bd b5f8 21bd 20f2 bd3d
00000330: 17a9 403e 4564 d73d 787a 8a3e ba5a 99bc
00000340: c369 953e be1b 303e 3859 c43d c701 c73d
00000350: 166a 723d 6d5a 673d fb27 3abc 0a35 643d
00000360: 9f69 b23c f183 463e 3695 4dbc d695 2f3d
00000370: f8b5 9d3c b36a 403e 1e7c ac3c b75d e63d
00000380: d310 0f3e 46da b63d ba1a fb3b eabe 683b
00000390: 4d2d 973d 86e0 b43c 04bc cebb 2eaa 2a3e
000003a0: 5e18 773d 3e30 a73e 32fc 14bd 08fb c8bc
000003b0: ed4a 23bc 62f8 b13c 31d5 2f3e 08bf 263e
000003c0: 4564 7a3d 5b3b 343e 8a33 fdbc c209 f63d
000003d0: fa31 d03d be64 c5bd 2319 143e b654 243e
000003e0: 8185 103d 28a4 58bd 4bec a13d 4023 433e
000003f0: 124b 183e 6c2b 61bd e7be 0d3e ecfb 823b
-0.048329305 -0.05909843 -0.081337556 -0.057086784 -0.019877251 0.029695293 -0.22203012 -0.14877944
-0.017520944 -0.036004707 0.009721435 -0.06570209 -0.080556124 0.037890434 -0.053680576 0.019152509
-0.036420107 -0.076131694 0.09077706 -0.012759969 -0.11038927 -0.0032062791 -0.14703566 -0.013090819
-0.051860407 -0.07593458 0.09708844 -0.057382524 -0.024852792 0.06372161 -0.063036665 -0.0086483825
-0.047744412 -0.11942974 0.02568266 0.02387742 0.1810236 0.16673297 0.010577977 -0.05619744
-0.010863581 0.13564713 -0.075884685 -0.08377499 0.095039874 0.096445724 -0.16379723 0.009062152
0.101317555 0.14386979 0.22749257 -0.003038486 0.04235197 0.020526176 -0.07585893 0.06965355
0.014368832 -0.0839761 -0.021005977 0.014650459 0.06843482 -0.08235864 -0.002100832 0.19369847
-0.049108535 0.0939112 0.031782147 0.04897086 -0.21964464 -0.060988624 -0.06368876 0.000246976
0.018565618 -0.19429274 0.009083836 -0.03837613 -0.08617666 -0.08561664 -0.003280986 -0.012634305
-0.15747164 0.047807604 -0.26022238 0.013072627 -0.04421004 0.020596078 -0.17880946 0.01183571
-0.04495749 -0.082589515 -0.0551634 0.008686664 -0.06724837 -0.038194768 0.0053011356 0.013956545
-0.118165515 -0.061361745 -0.1308443 -0.10118007 0.012086436 0.08392237 -0.11213282 0.034223814
-0.03316461 0.02878875 0.09573073 -0.0995053 -0.09321924 -0.033429816 0.05848363 0.07085842
-0.030005282 0.15746042 -0.050969925 -0.013179999 0.0117196925 -0.0010841027 -0.15115498 0.13299954
-0.067269385 0.027190566 -0.052434713 -0.026468866 0.13842541 0.05103741 -0.11228334 -0.0144075295
-0.08900024 0.006507156 0.17275795 0.08289628 0.11932314 0.03650265 -0.046277463 -0.025717419
0.17942119 -0.055186015 0.18356876 0.0827532 0.08228 0.117808476 0.021394245 0.074416086
0.027537245 0.14019398 0.06617737 0.15981534 -0.06658191 -0.04331839 0.21690944 0.021852372
0.096160874 0.029410804 0.11083588 0.17052628 0.19355726 0.11483941 0.025026403 0.13037772
0.09661976 -0.028765295 0.028708475 0.16866423 0.12400489 0.14072713 0.07160597 -0.059620883
0.05663132 0.091204636 -0.031957738 0.1026538 0.2001544 0.18685 0.085088514 0.13419448
0.023298455 0.012176539 0.24486442 0.062071938 0.052391365 0.06694358 0.22755869 0.1488779
0.025139004 0.02289928 0.118675 0.17560126 0.14581248 0.14223668 0.06922969 0.13236418
0.03261505 0.07428992 0.045560904 0.16652535 0.16618596 0.013684597 0.095915675 0.116005935
0.16838904 -0.04344888 -0.039543826 0.09274697 0.18814503 0.10517172 0.2704656 -0.01872002
0.29182252 0.17198083 0.095873296 0.09717136 0.059183203 0.05648272 -0.011362071 0.055714644
0.02177888 0.19386269 -0.012547782 0.042867504 0.019251809 0.18790703 0.021055277 0.112483434
0.13971262 0.08928351 0.007663098 0.0035514184 0.07381687 0.022079717 -0.0063090343 0.16666481
0.060325973 0.32653993 -0.036373325 -0.024533764 -0.009966594 0.021724883 0.1717117 0.1628381
0.06113078 0.17600767 -0.030908365 0.1201358 0.10165782 -0.09638356 0.14462714 0.1604794
0.03528357 -0.052890927 0.079063974 0.19056416 0.14872387 -0.05497305 0.13842355 0.0039973166

fc.weight f4 [20, 128]
00000000: 50df 6a3e 6d92 02be b9ba 3abe df18 18bd
00000010: df26 453e e762 9dbe 87f8 5cbe b966 53be
00000020: ad4c 2d3e c2ae 38be 6439 5a3d 3216 8cbe
00000030: 09df 95be 8031 27bd 5c01 3fbe 8132 1abd
00000040: 1950 9e3e 0994 a33e 653e 323e 20a9 78be
00000050: 1376 9f3d e6c6 45be 0d2f f2bd 7c20 f5bd
00000060: 6f31 25be a8bc 78bd ca47 53be b69c 02be
00000070: b1c3 c4be a293 c4be f2b3 41be 2c5c 3ebe
00000080: cbbb 1a3e 7fbf 09bf 4185 053f dc6a e93d
00000090: 1acc 4e3e 6663 613d 0edd d33d 9371 f2bd
000000a0: e53e 56be 8889 953e bc2f b3be 34ac 333e
000000b0: 110a 303e 965e d5bd 7eae adbe 49f2 913e
000000c0: e49f 1bbe b43c 4abe ea31 f23d f095 053e
000000d0: a6ab 333d 5458 443e 77c1 afbe 824d 9c3d
000000e0: 994f 06be 8832 2bbe cbe6 063e c86c 6f3e
000000f0: ac58 8fbe e6c8 43bd 23f5 d93d ac38 a83d
00000100: 65f1 e23c 71ae 863d 9f1f 763e 1623 75be
00000110: 1ba7 a4be 11d1 6b3d d213 debd 13af 8d3d
00000120: 26e5 45bd c1c8 24be 1f20 1dbc 9150 efbd
00000130: 1877 aa3e 5d46 113e fee6 493e 29b8 00be
00000140: 71c6 e53e d997 0cbe eb18 3fbe ac08 76be
00000150: 5a1a 7f3d b423 d8be 7b2e 9a3d 11f2 833e
00000160: dcca 9dbe cb41 3d3e a2e2 1e3e ae03 61be
00000170: 8f7d a93d 5bc2 503e 7db8 163d c717 5ebe
00000180: 7a96 a0be 2a1b 09bf 38d3 44bd 3089 02bd
00000190: 1b9f db3e fcc5 bf3d 1dbc f83d b240 1abe
000001a0: 908b 183e cdcd 16be f295 90be 7e1d 80bb
000001b0: 1f99 d4be 73b2 96be 4434 b3be aac1 043f
000001c0: cbb5 173e c0ba af3d febc 4cbc 3e58 e43e
000001d0: 0167 393e 1d84 8c3d 5890 11bd 8aee c7bd
000001e0: fb67 913e c2d3 a8bd 0376 063c cccb 2fbe
000001f0: c889 4fbe 3682 8ebe da91 75be 5f3f 263e
00000200: d6a9 113c 814e 1bbe 8fe2 d9bd 7558 653e
00000210: aa81 153e c7aa 133e d43e 243e 7bff 613e
00000220: bdb3 4bbf bb01 33be 17fa 853d 5efa 1ebe
00000230: 532a 59be 033f f6bd 4924 923e 1029 783e
00000240: e23c b73e c0fe ef3e a6ed 333e e059 7ebe
00000250: daba da3e 4300 65be 8164 8dbe f0ec a53e
00000260: 586c 6abd 7b36 803e be6b 583b 9e2a f93e
00000270: 6aca bc3e 43c3 e8bd 764e d63e 54f9 cd3d
00000280: d71a 0bbf 1395 a5bc 6ac1 293d 0e57 60be
00000290: 5071 f43d d18e 78be 3c52 993d e34c ec3d
000002a0: 0734 0bbe 885d 18be 57e3 b6be 7356 8abe
000002b0: f67c 993e d4f5 4c3e 1180 9dbe 52bf 1cbd
000002c0: e56a f5bc df46 23be d121 803c 7815 99bd
000002d0: ae46 0c3e acc1 61bd fcb0 a3be 75d5 7d3d
000002e0: 29e9 933e 2531 ed3e f06e f33b 3af5 34bd
000002f0: 8ea0 92be cdcd 143d 9ac3 8c3d bf9d cfbd
00000300: bee0 adbd 7af3 17bf a8d6 62bf 45fe 51be
00000310: 2585 37be ba77 a9bd 8de7 353e 315d bf3e
00000320: 7a01 8dbe 214a 99bc 1fe4 49bd 935c a9be
00000330: d0ec d83e 42b6 a3be 78b1 36bf 07c8 0b3e
00000340: 9373 ed3d 3714 413e 3030 55be a36a 36be
00000350: 7816 4a3d 6d7a 84bc 2289 b03e 33df 343e
00000360: 1beb 9bbd ea6d 803e d2cd e0be 89b0 13be
00000370: 8d29 04bd e39c 703e e7fe b23d c4a0 f1bd
00000380: c2c4 493e 7dc8 60be 8a12 97be d0bd b53e
00000390: 4f95 74be 1d64 3ebe 12bf 533e 9ffb 3c3e
000003a0: f2da 4bbe 66bd c93d 21c0 033d abc2 92be
000003b0: 1cdb 1fbf c812 44be d263 e13c eb4d a1bd
000003c0: a9ca 7f3d b29b bb3d 1e46 193e 17c9 44be
000003d0: f7ce cc3d a769 b33d ca0d 70be feb3 6abe
000003e0: 5905 1b3e effe 5bbe d4df bc3e 9866 673e
000003f0: 166e 543c 9204 18be cd52 fe3e 1252 0ebe
0.2293675 -0.1275117 -0.18235292 -0.037133094 0.1925311 -0.3073952 -0.2157918 -0.20644654
0.1692378 -0.18035415 0.05327739 -0.27360684 -0.29271725 -0.04081869 -0.18652862 -0.03764582
0.30920485 0.3194888 0.17406614 -0.24283266 0.07786193 -0.19314155 -0.118253805 -0.119690865
-0.16132139 -0.06072679 -0.20632854 -0.12755093 -0.3843055 -0.38393885 -0.189163 -0.18589848
0.151107 -0.53807825 0.52156454 0.11397335 0.20195046 0.055026434 0.10344897 -0.11838069
-0.2092243 0.2920649 -0.34997356 0.17546159 0.1719134 -0.104184315 -0.3392219 0.2850516
-0.15197712 -0.19749719 0.118259266 0.13045478 0.04386487 0.1917432 -0.3432729 0.07631971
-0.13116302 -0.16718495 0.13173978 0.2338134 -0.2799734 -0.047799014 0.10642459 0.08213934
0.027702997 0.06576241 0.240355 -0.23939165 -0.3215874 0.057572428 -0.10843624 0.069181584
-0.048314236 -0.16092207 -0.009590178 -0.11685289 0.33293986 0.14186998 0.19717023 -0.12570252
0.4487796 -0.137298 -0.18661849 -0.24026746 0.06228099 -0.4221474 0.07528397 0.2577062
-0.30818832 0.1848213 0.15516141 -0.2197406 0.082759015 0.2038664 0.036797035 -0.21688758
-0.31364805 -0.53557074 -0.048052996 -0.031869113 0.42894825 0.093639344 0.12145255 -0.15063742
0.14896989 -0.14726944 -0.282394 -0.0039097657 -0.41523072 -0.2943302 -0.35000813 0.5185801
0.14815442 0.085805416 -0.012496231 0.44598573 0.18105699 0.06861136 -0.035538048 -0.097622946
0.28399643 -0.082435146 0.008206847 -0.17167586 -0.20267403 -0.27833718 -0.23981419 0.16235112
0.00889059 -0.15166666 -0.10638916 0.22397025 0.14600244 0.14420615 0.16039592 0.22070114
-0.79571134 -0.17481129 0.065418415 -0.15525195 -0.21207552 -0.12023737 0.28543308 0.24234414
0.35788637 0.46874046 0.17571124 -0.24838972 0.4272068 -0.22363381 -0.2761574 0.3240733
-0.05723223 0.25041565 0.0033023204 0.48665327 0.3687318 -0.11365368 0.41856736 0.10057321
-0.5433783 -0.020212686 0.04144422 -0.21908209 0.11935675 -0.2427323 0.07486388 0.115381025
-0.13594066 -0.1487943 -0.35720322 -0.2701908 0.2997815 0.20015651 -0.3076177 -0.038268395
-0.029958198 -0.15945004 0.015641125 -0.07474798 0.13698837 -0.05511634 -0.31970966 0.061971147
0.28888825 0.46326557 0.0074289963 -0.04417918 -0.28638119 0.03632908 0.068732455 -0.101375096
-0.08490132 -0.5935589 -0.8860879 -0.20507152 -0.17921884 -0.08274789 0.17764111 0.37375787
-0.2754019 -0.018712105 -0.04928982 -0.3307844 0.42368174 -0.3197499 -0.71364546 0.13650523
0.1159431 0.18855368 -0.20819163 -0.17814116 0.049337834 -0.016171658 0.34479624 0.17663269
-0.07613202 0.25083858 -0.43907028 -0.14422812 -0.03226619 0.23497348 0.08740025 -0.11798242
0.19703963 -0.2195148 -0.29506332 0.35496378 -0.23885082 -0.18592878 0.20678356 0.18455361
-0.1990774 0.09850578 0.03216565 -0.28664145 -0.6244371 -0.1914779 0.027513418 -0.0787619
0.06244913 0.09160556 0.14968154 -0.19217335 0.10000413 0.08760386 -0.2344276 -0.22920224
0.15138759 -0.21483968 0.36889517 0.2259773 0.0129657 -0.14845493 0.49672547 -0.13898495

fc.bias f4 [20]
00000000: 1e27 583e 9b13 c83c 5202 9bbd 6499 21be
00000010: 31e1 d3bd 0e11 44be b87c f53d f942 4cbe
00000020: 2c31 9a3d 866d 903d 0b86 5ebd fdae 3bbe
00000030: 98ad fb38 f197 ea3d 1d76 3dbe 42d8 d9bc
00000040: 21c8 97bd ba93 a13d af51 273e 6d31 693e
0.21108672 0.024423411 -0.07568802 -0.1578117 -0.10345686 -0.19147131 0.11986679 -0.19947423
0.0752891 0.0705214 -0.054327052 -0.18328471 0.00012000947 0.11454762 -0.18502088 -0.026592378
-0.074112184 0.07889505 0.16339754 0.2277276
